t1_lstm_word2vec.pt (torch, 101410 bytes, 6 tensors)

weight_ih_l0 f4 [64, 300]
00000000: d7cd f03d e70b bebd ec4d 1cbd 6cc1 70bb
00000010: a818 073e 1d33 b03d dea0 1dbe ac89 0e3e
00000020: 3298 b13d 5c8c 20be 0f87 74bd fdcc bbbd
00000030: 0bd2 9ebb edb2 3ebe 624c 96bd c6fb 45bd
00000040: 4fba b13d c7a5 a4bd a9e5 59bc d793 8dbd
00000050: 9d4c a53c 5334 b0bd 6b80 4ebd feff f2bc
00000060: 1cb6 4dbd dc28 ccbd 8b59 abbd 49e1 a9bc
00000070: 9ab5 59bc 85ca 53bd c13d eabc 07ed 153c
00000080: 13aa 1cbd eddf 81bd 53d1 62bd 77a8 5d3c
00000090: 91e9 c63d f9c3 a2bd 81ad 643d 6a1c 1d3e
000000a0: 1902 41bd f8d3 dfbd 18ac c93d a41b bebd
000000b0: c817 b3bc b85b 62bd e474 c83d 22bf 273a
000000c0: 7dbc 8bbc 40ba 883d 31e0 3ebd a320 b1bd
000000d0: b46f b93d 7ae7 bbbd 7db2 27bc 16f4 1ebd
000000e0: aa7e fd3d 44bc 3e3d 9b56 cbbc 1750 cb3d
000000f0: 2b4a 593c 9582 b6bd 31e8 63bd e419 3abd
00000100: 3db2 abbd e7cb 763d 7892 f33d 3b38 c43d
00000110: aaf8 d33d c6ed 60bc c1df 013e a171 1ebe
00000120: 6391 15be 18b9 243d 4778 3a3d 94ad 873d
00000130: 86d0 a1ba bedf d03d d6ec a4bd 78e8 283e
00000140: 9369 b0bb c9ff 4bbc 0fe0 e03d fa02 42bd
00000150: 7f47 ef3c 4ebf d9bd 6c92 dc3d 18e9 913d
00000160: 0c63 e2bd a38a dfbd 4dd2 cc3c 4048 a33b
00000170: d4fe 9e3d f5c8 a93d 7935 cabd a054 70bd
00000180: 568e b83d 2f71 8dbd c703 e5bc 49f0 e7bd
00000190: 9847 41bd 4e95 09be 9e43 aebd 53cf 973d
000001a0: ac77 df3c cc4b b33d 41ce a0bd e5fa abbd
000001b0: 6b15 ce3d dd1d 8e3d 2fef 9d3d bdcb 0a3e
000001c0: 4de0 fe3c 98bd ccbd 08b6 a73d 9d54 35bd
000001d0: 497e b53c ca77 97bd f72d 2c3c 8cde b8bb
000001e0: ebcd 723d 4ca2 43bc 6c32 b23b a39e 3abb
000001f0: cc36 75bd 6d60 e2bd 9b06 473d 7db3 d23d
00000200: b57c 31bd 860c 2f3b a3b1 dd3c 079c b93d
00000210: b8b2 9cbd 1fe3 c13d 8d97 bbbd 014b 8ebd
00000220: 35dc a83c dc25 e7bd 5e7e 4f3d 4b3b c6bd
00000230: 05d3 b4bd d2a6 dc3d 8838 a3bd fcca 523e
00000240: 8e15 b8bd 01a4 e5bb 8343 e3bd 289a 933d
00000250: 3374 b9bd 3a82 993d a9ea fcbd a31a 1a3d
00000260: 99db 253e 2167 a13d 7dc3 d6bc 8c41 82bd
00000270: ef6d cebd 697c 983c 44fe 263e 6134 47bd
00000280: 9e25 903d 0e4d 89bc dbc3 a73c 7f31 05bd
00000290: cad1 4fbd dfad 8ebc 8a4c bd3d d6c1 babc
000002a0: a98e 14bd 1da8 0cbe e96e 123e ccfc 003e
000002b0: 1b40 b6bd bd64 573d ba41 ebbd ffb2 85bd
000002c0: eaad 08be d547 b43c 092a 0cbd 0f59 863d
000002d0: 1fbb dabd feaa 8dbd 1c01 ab3c ec04 0cbe
000002e0: 1962 c4bc c8cd 43bc cb84 17be dcce a8bd
000002f0: e7c3 efbc feb0 ac3d d12b 97bd 822c e0bc
00000300: e5a4 ecbc d14a dd3b 7f87 3c3d 60cc b53d
00000310: 89ec 99bd af85 553c 50d1 6b3d 68c1 61bd
00000320: 2425 c23b a53a b83d 53ec 093d 2ab0 99bd
00000330: f769 633c d6fa b2bd 432b f6bd aaf7 97bd
00000340: df23 723d a7ee 21be ec94 e8bd f268 a43d
00000350: a3fb b6bc 6b52 8fbd 66ba 7a3c c856 01bd
00000360: b130 7f3c 49f3 0abe aebb 80bd c662 84bd
00000370: 6e19 a43d d656 813c a05f b93a 05eb 27bd
00000380: ca4f e13d 265b 7f3d bd6b bc3d 6e01 753c
00000390: 2e01 bebd 4f49 92bd 5782 963d 3434 c43d
000003a0: 5ef3 d13d ed65 21bd edda f8bd 94d1 cc3d
000003b0: 9a51 4fbb 399e da3d bcc6 173d f945 3bbd
000003c0: d2e5 b7bd 745e fabd 9a85 e6bd a07b 91bb
000003d0: 0ad1 c33d ae09 953d 3367 ce3d 02be f53c
000003e0: 2b32 673c e0ce 723d c0e0 cfbd bab7 9abd
000003f0: 269c 9c3b ab5d 4fbd 1705 743d 9a32 e1bc
0.11758011 -0.09279614 -0.03816025 -0.0036736382 0.13193 0.08603499 -0.15393397 0.13919705
0.08671607 -0.15678543 -0.059699114 -0.09169958 -0.0048468164 -0.18622942 -0.073387876 -0.048335813
0.08678114 -0.08039432 -0.013299384 -0.06912964 0.020178134 -0.0860373 -0.050415438 -0.029663082
-0.0502225 -0.09968731 -0.08366688 -0.020737307 -0.013287926 -0.05170681 -0.0285939 0.00915075
-0.038248133 -0.063415386 -0.05537541 0.013528935 0.09712518 -0.07947535 0.05582953 0.1534287
-0.04712114 -0.10929102 0.098472774 -0.09282616 -0.021861926 -0.05526325 0.0978792 0.00063990254
-0.017057652 0.06676149 -0.046600524 -0.08648803 0.09054509 -0.0917501 -0.010235426 -0.038806997
0.12377675 0.046566263 -0.02482157 0.09927385 0.013262312 -0.08911625 -0.055641357 -0.045434847
-0.08383606 0.06025305 0.11893171 0.095810376 0.10350163 -0.013728565 0.12683012 -0.15473033
-0.14606242 0.04021558 0.04552486 0.06624904 -0.001234547 0.101989254 -0.08052985 0.1649493
-0.005383679 -0.012451121 0.10980236 -0.04736612 0.029208897 -0.106321916 0.10770115 0.07124537
-0.11054048 -0.10915115 0.025002623 0.004982978 0.07763448 0.08290283 -0.0987348 -0.058674455
0.090115234 -0.06906354 -0.027955903 -0.11325128 -0.047187418 -0.13435861 -0.08508991 0.07412591
0.027278744 0.087546915 -0.0785184 -0.08397464 0.10062679 0.0693929 0.07711636 0.13554282
0.031112814 -0.099971 0.081890166 -0.044270147 0.022154944 -0.07395895 0.010509006 -0.005641764
0.05927841 -0.01194055 0.0054381397 -0.0028475903 -0.05986671 -0.11053548 0.048590284 0.10288141
-0.04333182 0.0026710345 0.027062243 0.09062963 -0.076512754 0.09467148 -0.091597654 -0.069478996
0.020612815 -0.11286518 0.050657623 -0.09679278 -0.08829311 0.10774006 -0.07969767 0.20585245
-0.08988486 -0.007008076 -0.11096861 0.07207137 -0.09055366 0.07495542 -0.123494454 0.03762306
0.16197051 0.078809984 -0.026216263 -0.06360158 -0.10079562 0.01861401 0.16307932 -0.048633937
0.07038425 -0.016760375 0.020479133 -0.032517906 -0.05073718 -0.017416893 0.09243114 -0.022797506
-0.036268864 -0.13736005 0.14300121 0.12596434 -0.08898946 0.052586306 -0.11487146 -0.065282814
-0.13347593 0.022006908 -0.034219775 0.06559955 -0.10680222 -0.0691738 0.020874552 -0.13673753
-0.023972558 -0.011950918 -0.1479675 -0.0824258 -0.029268218 0.08432196 -0.07381404 -0.027364973
-0.028887222 0.0067533036 0.046027657 0.08876872 -0.075158186 0.013032361 0.057572663 -0.055116087
0.0059248377 0.089955606 0.033672642 -0.07504304 0.013880244 -0.087392494 -0.1201997 -0.07420285
0.05911624 -0.15813695 -0.113565296 0.08027829 -0.022336787 -0.06998142 0.01530323 -0.0315769
0.015575574 -0.13569368 -0.06285797 -0.06464152 0.08012663 0.015788477 0.0014142878 -0.040995616
0.11001547 0.062342785 0.09200237 0.014953954 -0.09277569 -0.07142889 0.07349079 0.095802695
0.10251497 -0.039403845 -0.12151132 0.10000911 -0.0031634332 0.1067471 0.037054762 -0.045721028
-0.089793816 -0.12225047 -0.11255951 -0.004439786 0.095613554 0.07277237 0.100782774 0.02999783
0.014111082 0.059279323 -0.101502895 -0.07554574 0.0047793565 -0.050626438 0.059575167 -0.027489949

weight_hh_l0 f4 [64, 64]
00000000: 7fa2 1fbd 65c1 9d3d f3f4 fb3c 58ae 72bc
00000010: cdb8 513d 3e37 dfbd 8a28 7c3d eb8e 8dbd
00000020: cac2 f83d 6eb6 93bb 77ba aabd 7050 4dbe
00000030: 262e 0f3d a3ce cf3d 40b0 84bd 6a7e 013d
00000040: d9dd 01bc 5a74 f73d fd09 cd3d 12e0 ccbd
00000050: 62a9 a5bd 2aea 1f3e bed1 20be 528d 95bd
00000060: ef73 3d3d bd0c ff3d a4de 053e bcfc f8bd
00000070: 619f 7c3d 4914 803c 5141 1a3e 0f60 b13d
00000080: f69d 163e 25a4 dfba ee7a 42bd fcf1 70bc
00000090: fc72 94bd b0f6 ab3d beee 0abd ae7c 903d
000000a0: 580c a8bd 97e9 e2bd eb2a 5dbd dc32 dabb
000000b0: 661e f23d dcbc c0bd 190d 943d 483e 97bd
000000c0: 6541 3fbb 2d02 503c 9b71 dd3d 2245 153d
000000d0: bb4b 973c ed9b 943d c006 b5bb c608 0d3c
000000e0: 52f1 f63b 8d8d 073d d503 7cbd 1b65 263d
000000f0: 218c 143d 2cc7 5b3d 38b4 713c 0091 b1bd
00000100: 8eb7 ce3c 42fc da3d 88f6 19bd de77 b33d
00000110: c584 0a3e dace 4b3d d22f dabd 2516 12be
00000120: 0058 79bc ed95 27bd b3f2 ad3d 222f 163d
00000130: d212 4d3c 61ad 0a3e c9a2 3dbd cd02 e8bd
00000140: 8fbb cabc 8d12 09bc 0309 963d 07e0 863d
00000150: 9223 d43d eef1 85bc 4c19 d63c c4da 2ebc
00000160: 8615 273d e8e5 cf3d c026 f5bd 010c e8bb
00000170: b10c 84bd cd18 85bd 3360 a6bb 2f3b f33d
00000180: a608 013e 646b 863d fdbb 8dbc 8ed6 7abc
00000190: 7060 00bc f1ae 9bbd 2e3f ee3c 5374 063e
000001a0: 898e 12be c159 c0bd 06fe 8fbc d3db 5c3d
000001b0: 64b8 5e3c 5f24 1dbe ef2d 53bd 1054 d73d
000001c0: cfc1 3cbd 6b40 dc3d 303f 8fbd 81d7 60bd
000001d0: f0c9 0f3c fb2f 92bd afe4 e33c c31e 293d
000001e0: 67e8 c7bd d9a8 033e 1595 53bc fc62 8d3b
000001f0: 74de fbbd 56fe 24be 820f f33d 251d 10bc
00000200: f714 e9bb e634 d9bb 3d52 63bd a3a5 093e
00000210: acf4 5abd 7da4 3e3d 9671 f6bd e2e8 1cbe
00000220: 0e34 ef3d da4c cabd 5bb7 93bd 4bfa b13d
00000230: 7ccb 973d 1147 a93c 57d3 c3bc 7282 cebd
00000240: ec52 c83d db2d 933d d5ed 853d 8737 8b3d
00000250: f47b 203d 1b9a 3fbd 6b30 9dbc b986 c83d
00000260: c3a5 a23d 6845 d93d 9656 a3bd 1717 06be
00000270: 8f1d 883d f490 b33c 70d0 6abd 9b10 d53c
00000280: 497c b03c 1d59 013e 1b09 0dbd d50d bd3b
00000290: 2e2b 473d 7c60 cdbc ddbb b33d 5ea7 4e3d
000002a0: e15f ddba 58f8 b8bd dbc7 aabc 8570 783d
000002b0: 1b06 62bd 128e 293c 0169 22be 8a83 773c
000002c0: e909 203c f478 1ebd 54e7 86bd 0c94 4bbc
000002d0: d868 86bc b971 943d 4637 1b3e fbb0 ea3d
000002e0: c587 b2bd 9074 1cbd 8762 9a3c bafb f03d
000002f0: 180c 20be 06f0 283d 5f8e b33d eea3 1ebe
00000300: baf8 b53d 8797 0d3e d49c 033d 5785 82bc
00000310: daab a8bd 1842 c4bc 1df3 cd3c a3df 173c
00000320: 2a00 31bd c945 873d 4b8b f23d dbeb 3bbd
00000330: 7730 5c3d 91f1 983d 97ae 193e bf66 373d
00000340: c1bb 21bc a8c4 753c 5c33 fbbd 676a 4bbd
00000350: bdf1 103c 5820 753d 8a54 843d a8f8 223e
00000360: be28 dabc d611 89bd db0b c13d 650a 613c
00000370: df9e abbd 3985 fb3d 03d7 743d 89ca 0abd
00000380: ff2b bd3c a2ce 29bd 77ba e23a 7c96 0d3e
00000390: 2096 1c3e 379f eb3d 6eee 1abe 4730 c8bd
000003a0: bc6e debb 77b5 023d d03c c03d b8cc 8ebc
000003b0: 4603 c7bd ee7b 97bd 3bae f6bd 5f7f 7ebd
000003c0: 6c6d 51bd cc5f 2c3d a5dd ad3c 6394 653d
000003d0: f7f6 69bd c916 143e 0cf4 46bc 0a2c c43c
000003e0: 8cc4 523d 4353 133e 112d 11bd c95c e13d
000003f0: ea13 fabd fa34 e0bc d839 83bd c062 383c
-0.038973328 0.07702903 0.03075645 -0.014812075 0.05120163 -0.108992085 0.0615621 -0.06912025
0.12146528 -0.0045078313 -0.083363466 -0.20050216 0.03495612 0.10146835 -0.064789295 0.0316147
-0.007926428 0.12082739 0.10011671 -0.100036755 -0.08088948 0.1561667 -0.1570501 -0.07302345
0.04625314 0.124536015 0.13073212 -0.1215758 0.061675433 0.015634673 0.15063979 0.086609
0.14708695 -0.0017062469 -0.047480516 -0.014706131 -0.07248494 0.08396661 -0.03391909 0.07055031
-0.082054794 -0.1107971 -0.053996008 -0.006658895 0.11822204 -0.09411022 0.07229061 -0.07384926
-0.0029183265 0.012695831 0.10812684 0.036442883 0.018468728 0.07256303 -0.0055244863 0.008608049
0.007536092 0.033093978 -0.061527092 0.040623765 0.03626645 0.053656742 0.01475244 -0.08670235
0.02523401 0.106926456 -0.037588626 0.08763097 0.1352721 0.049757816 -0.10653652 -0.1426626
-0.015218735 -0.040914465 0.08493557 0.036666043 0.012516694 0.13542701 -0.046297822 -0.11328659
-0.024747638 -0.008366239 0.073259376 0.065856986 0.10358347 -0.016350713 0.02613511 -0.010672275
0.04079201 0.10151273 -0.119702816 -0.007081509 -0.06447733 -0.06498871 -0.005077386 0.11876523
0.12600955 0.06563452 -0.017301554 -0.015309943 -0.0078354925 -0.07601727 0.02908286 0.13130312
-0.14312185 -0.09392119 -0.017577183 0.05392058 0.013593767 -0.15345906 -0.051557478 0.105140805
-0.046083268 0.10754474 -0.06994474 -0.05489302 0.008776173 -0.07138058 0.027819006 0.041289102
-0.09761124 0.12857379 -0.012913962 0.0043147784 -0.12298289 -0.16112646 0.11868192 -0.008796011
-0.007113095 -0.0066286204 -0.05549835 0.13442092 -0.053455994 0.046543587 -0.120333835 -0.15323213
0.116798505 -0.098779395 -0.07212707 0.08690318 0.074118584 0.02066377 -0.023904486 -0.10083474
0.09781441 0.071864806 0.065395035 0.067977004 0.03918071 -0.046777826 -0.019188127 0.09791321
0.07941773 0.10608941 -0.07975499 -0.13094746 0.06646263 0.021919705 -0.057327688 0.026008895
0.021543639 0.1263165 -0.03443251 0.005769471 0.048625164 -0.025070421 0.087760665 0.050452583
-0.0016889536 -0.09031743 -0.020847252 0.060654182 -0.055181604 0.010348814 -0.15860368 0.015107045
0.009767988 -0.03868957 -0.06587091 -0.012425434 -0.016407415 0.072482534 0.15157804 0.114595376
-0.08717302 -0.0381971 0.01884581 0.11766763 -0.15629613 0.04124453 0.087673895 -0.15492222
0.088853315 0.13827334 0.032131985 -0.015932722 -0.08235903 -0.023957297 0.02514034 0.009269628
-0.043213047 0.06605107 0.11842974 -0.045879226 0.053757157 0.0746795 0.15008007 0.04477572
-0.009871424 0.0150005 -0.122656554 -0.04966202 0.008846697 0.0598453 0.06461437 0.15915167
-0.026630756 -0.06692855 0.094260894 0.013735388 -0.08379912 0.122812696 0.059775364 -0.03388456
0.023092268 -0.041456826 0.0017298002 0.13826936 0.15291643 0.11504977 -0.15130016 -0.09774833
-0.006788103 0.03191134 0.09386599 -0.017431602 -0.09717421 -0.073966846 -0.120449506 -0.06213319
-0.051129743 0.042083547 0.021223852 0.056049716 -0.05712029 0.14461817 -0.012143146 0.02394678
0.051456973 0.1438723 -0.03544337 0.110040255 -0.122108296 -0.027369011 -0.06407517 0.011254013

bias_ih_l0 f4 [64]
00000000: e39c c83d 9439 163e 39ae 173c 5c7f c53d
00000010: 8aef 0d3d 20f5 df3d 5e50 b03d 4118 86bd
00000020: 5681 033e e7f6 c6bd 4c8a b43d 455e 09bc
00000030: 893d 0c3e c9d8 c7bc 4355 d83d f822 06be
00000040: 5c51 c4bd c5d9 e63d 7cfa a2bb 58b1 42bd
00000050: 881a 7b3c 6f2c 45bd cbb3 d53d 5588 943d
00000060: 2505 1abe 9bb4 c23d 8d71 753c 606c 9dbb
00000070: e29a e73c 22d7 1cbc d2f4 02bd 9202 953d
00000080: 009e 47bd 36ba 8b3c bbd9 1cbb 9057 c63d
00000090: f66f 61bb bd61 a33d c803 ecbd fe04 103d
000000a0: 4537 cfbd 8e3b b4bc edb7 cebd 048d 973c
000000b0: 5aac d7bd d2f6 15be 745b 9dbd 825a c63d
000000c0: f2a5 78bc c30b eb3b c421 abbd 2b3d d73d
000000d0: 8440 f83d 8af0 fc3d da4c 5bbd 8266 1c3d
000000e0: 3f55 02bd 8326 033d a1de 4cbd ec13 f23d
000000f0: 8138 773d f677 8a3d 440c 143e 381f 0ebe
0.09795549 0.14670402 0.0092578465 0.096434325 0.03465227 0.10935426 0.08609079 -0.06547595
0.12842306 -0.09715062 0.088154405 -0.008384292 0.13695349 -0.024395363 0.105631374 -0.13099277
-0.095858306 0.11272005 -0.0049737077 -0.04753241 0.01532615 -0.04813808 0.104346834 0.07252566
-0.15041025 0.09507104 0.014980686 -0.004804179 0.028272096 -0.009572776 -0.03197176 0.07275881
-0.048734665 0.017056566 -0.0023933488 0.0968467 -0.003439901 0.079776265 -0.11524159 0.03516101
-0.10117964 -0.022001054 -0.10093675 0.018499859 -0.1053092 -0.14644936 -0.07683459 0.09685232
-0.015176283 0.007173033 -0.0835605 0.10509714 0.121216804 0.12350567 -0.05354009 0.038183697
-0.03181958 0.03201915 -0.050017003 0.11820206 0.06035662 0.06761162 0.14457804 -0.13879097

bias_hh_l0 f4 [64]
00000000: b6b7 bebd f34c c23d 7569 0e3e 02b5 50bd
00000010: 43bc d73c 1d65 e03b 62be 02be 800d e3bd
00000020: e5ba e23d 007f bcbd 1ff5 a03d f292 0fbe
00000030: 0799 a9bd 5b8f 2fbd fbab 163c f2bb b5bd
00000040: 73b8 1dbb e326 003c 79de 11bd 7939 babd
00000050: f972 2b3c 5420 a5bd 290b d03d 99a1 74bd
00000060: c740 44bd 7324 143e f2f8 8fbd d1be 0ebe
00000070: dd79 b6bd 29ed 1e3e bc8f 733d 344d a93d
00000080: c512 5c3c 1160 183d f322 a03c 0533 8f3d
00000090: 8280 f53d 98d7 c13d cb6d beba eec1 3bbd
000000a0: ec30 27bd d90f d0bb 9dbb 383d 3193 b4bc
000000b0: 9f99 e4bc 422c 02be 43c0 983d 2ae3 1e3e
000000c0: 2c05 60bd 8ef1 f03d 9e23 ef3d 282f 3f3c
000000d0: be77 b73d c2bf c2bc b07a 103e 5a51 a83d
000000e0: f857 f9bc d610 d73d 969b 00be 266d 3d3d
000000f0: 5241 a2bd ed1f 13be 20e3 493d 6e76 833a
-0.09312384 0.09487333 0.13907416 -0.050953873 0.026334887 0.006847991 -0.12767938 -0.11086559
0.110708036 -0.09203911 0.07859253 -0.14020899 -0.08281141 -0.042861324 0.009196277 -0.08873738
-0.002406624 0.007821771 -0.035612557 -0.09092993 0.010464423 -0.08062807 0.10158379 -0.059724424
-0.04791334 0.1446703 -0.070299044 -0.13939978 -0.08909962 0.15520157 0.059463248 0.082666785
0.013432209 0.03720099 0.019547915 0.06992153 0.119874015 0.09464949 -0.001452857 -0.045839243
-0.04081814 -0.0063495454 0.045100797 -0.022042843 -0.027905283 -0.12712196 0.07458546 0.15516344
-0.054692432 0.11764823 0.11676715 0.011668958 0.08958386 -0.023773078 0.14109302 0.082186416
-0.030437455 0.10501258 -0.12559351 0.04624667 -0.07922615 -0.14367647 0.04928887 0.0010029802

weight f4 [14, 64]
00000000: 0722 26bd 2961 fb3d 7497 023e f3be aa3d
00000010: 0a94 a5bb e7df d43c 0c40 b1bd 5d9c d63c
00000020: e16d 103e f534 ffbd 092a afbb 8c2b 28bd
00000030: c7d3 4cbb 32e3 8c3d d801 b7bc 3be0 9e3b
00000040: 814e bdbc abb9 b33d d5dc b9bd 3b70 8fbb
00000050: e929 c73d 64b9 073a 47ef 30bd bf1f db3d
00000060: f2da 6dbd 1c2b a73d 9a86 3d3d de47 d2bd
00000070: 423f 183c 23be 253d c567 e0bc 7c26 a33d
00000080: 9e3d 623d a54f c43d e2ea 163d c011 223b
00000090: f2df f13d 94b5 a83d 8ca7 2fbd f07d c63d
000000a0: 7534 833c 1fc5 6dbd b2a4 0b3c 432a 18be
000000b0: 5fb3 813c 2b73 993a 208a 913d d579 073e
000000c0: c9e7 dcbc a097 0cbd 0687 503d ef99 123e
000000d0: cdec 003d f706 fb3d 7f8b d33c 05be 7f3d
000000e0: a043 9cbd 0fb6 f33d c61e aa3d ee8a 633d
000000f0: 35f9 08be 68bf 9dbc 54dc 383d 8fd3 ecbd
00000100: 76b7 76bd 7a05 fcbb eeab 2b3d 5d13 693d
00000110: b38b 86bd 2d6e b83d 890b 01be e77f 433c
00000120: f17d 8fba efc0 cb3d ae2f 023e a1e2 d4bc
00000130: 6c74 9fbb 98c2 8c3c 158f 19bd e7cc 19bd
00000140: 0096 debc 0d31 ffbc 4461 97bd 898d 00bc
00000150: 75c6 00bc da17 d9bc 5006 49bd 2bae 84bd
00000160: b76e 1f3d ec18 a43d fe1c 2c3c 8508 963d
00000170: 2b64 12bd 3def b7bd 2b42 3fbd dbad 4f3d
00000180: fb5a 663d 278a aebd 526a 703d 99c7 9b3d
00000190: 9314 8c3d 6fef 8d3d d356 9f3c 6bc8 8a3d
000001a0: 35f1 bebb ff06 1a3d 55d3 7b3b bda7 cebd
000001b0: f1d3 4d3d cbba 51bd 8ab0 56bd 3446 dd3d
000001c0: abe9 a6bd acc1 2bbb 335a 37bd b6a1 a33d
000001d0: a30d 07bd 1b30 fb3c 4aaf f83d 863d 1ebb
000001e0: ecd3 973c cf33 f4bc b835 9abd e577 043e
000001f0: f023 bd3d e107 08bc 0aa9 903d 296f d7bd
00000200: fa05 c03d 5387 bc3d 76c5 1bbd 873d 75bd
00000210: b280 863c 6374 833d 470c 1dbe 28ac 733c
00000220: 2f53 55bd 9753 19be 5075 a5bd aecb 8539
00000230: 4365 0a3c 06b2 42bd 1022 84bd 4fbc e8bd
00000240: bf73 9d3b e15f 8a3d 02a2 e1bd 5911 253c
00000250: aa4f fe3c 302c 2dbd 0a6f 1abd da72 8fbd
00000260: 4828 19be 835f 8bbd 6493 02bc d76e 663d
00000270: ba53 bbb9 cdd8 b2bd 2e3d 45bd 31d1 273c
00000280: ef48 353c 90ea 23bc 5f2c 2ebd 14c7 c03d
00000290: 44b7 253d f34c e43c c16e ecbd bf2f 44bb
000002a0: e048 8c3b b295 d33c 53cb a73c cfef 97bd
000002b0: 848a 8b3d e3ef 0abe c042 cfbc ea12 edbc
000002c0: 7f26 783c 3703 20bc e9d7 adbc ade9 663d
000002d0: a42d 89bd 2dba ecbc bb02 0f3e 0a3d 87bd
000002e0: 7a21 113c e959 4dbc 356a bfbd aa55 ff3d
000002f0: 305a e7bd 5fe2 b5bb 1f45 473d bd61 a3bd
00000300: db0a d0bd 392d 7fbc 53b6 b8bc 06ab cebd
00000310: 58a9 233d 9556 683d ce48 84bc 57a0 cf3c
00000320: 5d5b b43d 80b7 933d 53a6 653d 9936 28bd
00000330: 9e8a babc 1b5d 8cbd a982 b33d e17a 243d
00000340: 9455 ffbc 7cdc 293d f44e acbd 6c4b 9ebb
00000350: d65c c1bd 85ec 833c a99a 4ebd c880 67bd
00000360: a89b fe3d 68bf ea3d fc2d 6f3d 90f0 03bd
00000370: 7730 e8bb 7d84 e1bc 4013 d4bc cea0 823d
00000380: f978 9d3d 673b 5c3c 043a 493d 6d0a febc
00000390: 4de5 a6bc ea93 d83d 8406 43bb ef26 ca3d
000003a0: 6724 7d3c 41a5 683d 2b7b 20bc 8604 0fbd
000003b0: f309 5c3d 679f ccbd 2a88 573d fc77 8e3d
000003c0: c768 dcbd 7bd4 503d 55df f43d 1131 7f3d
000003d0: 0e62 01be 2943 6dbd 9668 aa3d e464 ebbd
000003e0: 73ba db3d e1ef 03bd 18eb a33d 3dd1 163d
000003f0: 9227 6bbd a3a3 6ebd 5a80 2b3c 9df3 bebd
-0.040559795 0.12274391 0.12753087 0.08337202 -0.005053048 0.025985671 -0.08654794 0.026197607
0.14104415 -0.124612726 -0.005345587 -0.041057155 -0.0031254159 0.068792716 -0.022339746 0.0048485077
-0.023108723 0.08775648 -0.090753235 -0.0043773926 0.097247906 0.00051774667 -0.043196943 0.106994145
-0.05807013 0.08162519 0.046270944 -0.10267614 0.009292426 0.04046453 -0.027393231 0.07966325
0.055234544 0.095855035 0.036845095 0.0024729818 0.11810292 0.08237758 -0.042884395 0.096919894
0.016016224 -0.058049317 0.008523153 -0.14859872 0.015832601 0.0011707296 0.071064234 0.13230069
-0.026965993 -0.03432429 0.05091002 0.14316534 0.03147583 0.12257188 0.025823353 0.062437076
-0.07630086 0.11899959 0.08306651 0.055552416 -0.13376315 -0.019256309 0.045131996 -0.11563789
-0.060233556 -0.0076910825 0.04191201 0.056903232 -0.06569614 0.09005389 -0.12602057 0.01193235
-0.0010947568 0.099489085 0.12713501 -0.025986971 -0.0048661735 0.017182633 -0.03748997 -0.037548926
-0.027171135 -0.031151319 -0.07391599 -0.007846245 -0.007859816 -0.026500631 -0.049078286 -0.064785324
0.038923945 0.08012566 0.010504959 0.07325844 -0.03574006 -0.08981178 -0.046693962 0.05070291
0.05623911 -0.08522444 0.058695145 0.076064296 0.06839862 0.06930434 0.01945058 0.06776508
-0.005827094 0.03760433 0.0038425524 -0.10090587 0.05025095 -0.05120353 -0.052414455 0.10804406
-0.081500374 -0.0026207967 -0.044763755 0.07989828 -0.03297199 0.030662587 0.12142809 -0.0024145558
0.01853367 -0.02980986 -0.07529777 0.12936361 0.0923537 -0.00830266 0.07063492 -0.10519249
0.0937614 0.092054985 -0.03803011 -0.05987313 0.016418789 0.064186834 -0.15336715 0.014872588
-0.052081283 -0.14973293 -0.08079016 0.0002551949 0.008446994 -0.047533058 -0.064518094 -0.11364042
0.004805058 0.06756569 -0.11017229 0.010074937 0.031043846 -0.04227847 -0.03770355 -0.07004328
-0.14956772 -0.06805327 -0.007969711 0.05625805 -0.000357298 -0.08732758 -0.04815405 0.010242746
0.011064752 -0.0100046545 -0.042522784 0.09412971 0.04045798 0.027868723 -0.11544562 -0.0029935685
0.0042811483 0.025828216 0.020482695 -0.07418787 0.06813529 -0.13568072 -0.025300384 -0.028939683
0.015145897 -0.0097663915 -0.021221118 0.056375194 -0.066981584 -0.02889737 0.13965885 -0.06603439
0.008858079 -0.012533643 -0.09346429 0.12467511 -0.11296499 -0.005550667 0.048649903 -0.079776265
-0.101583205 -0.015574747 -0.022547876 -0.10091214 0.03995642 0.056723196 -0.016147997 0.02534501
0.08806489 0.07212734 0.056066822 -0.041067693 -0.022771176 -0.06853696 0.08765156 0.04015625
-0.031168737 0.041470036 -0.084134966 -0.0048307683 -0.09441535 0.016103992 -0.050440464 -0.0565193
0.12432033 0.11462289 0.058393463 -0.03221184 -0.0070858556 -0.027528996 -0.025888085 0.06378327
0.07689089 0.013441897 0.049127594 -0.03101083 -0.020373011 0.10575087 -0.0029758522 0.09870707
0.0154505735 0.056798223 -0.0097949905 -0.034916423 0.053720426 -0.09991341 0.05262009 0.06956479
-0.10762172 0.050983887 0.1195666 0.062302653 -0.12635061 -0.057925377 0.083207294 -0.11493853
0.10728922 -0.03221119 0.08003825 0.03682064 -0.057410784 -0.058261525 0.010467613 -0.09323809

bias f4 [14]
00000000: e650 bc3d 6033 debc e4f2 e43d 99ff f1bb
00000010: b713 423d 01f6 c2bd cab4 eebd 83c1 adbb
00000020: 4d38 483b bf86 54bd f85f 17bc 7524 36bc
00000030: 1c09 7c3c 0788 fcbc
0.09195118 -0.027124107 0.1117914 -0.007385206 0.047382083 -0.09519578 -0.116555765 -0.0053026094
0.0030551136 -0.051886316 -0.009239189 -0.0111170905 0.015383031 -0.030826582
