t1_lstm_glove.pt (torch, 382404 bytes, 6 tensors)

weight_ih_l0 f4 [256, 300]
00000000: 63f6 4cbc 847e a73c 02b7 85bc 8a41 b8bb
00000010: 3ce6 203d 22a3 94bc 4971 193e b2c1 39bd
00000020: 374f 27bc aa6a 10be 08ac e03c 1dca 4db9
00000030: cbc1 2abd 018a b3bd 057f b0bd b625 07bd
00000040: e41f eabd 292e 89bd e89c babb 9251 1a3d
00000050: ec69 bd3c 90fe 93bd 74f5 aabd 4cbe 5f3d
00000060: 989e 74bd e181 5cbd 3d11 48bd d973 f13c
00000070: bbb4 063d f313 133e 1bee 3cbc d8b0 3d3d
00000080: d430 5d3d 93cf 203e 426a ae3d c7a9 3d3d
00000090: b8ce 0abe 3cdc b63d b06d 88bd 749f 5bbc
000000a0: 2afc 74bd 924c 073d 635e 923d e6aa cebc
000000b0: 5ce9 ca3d d3a9 ac3d 4786 4b3d cd24 563d
000000c0: a604 013b ffbe b73d ebd0 05be 4f82 02be
000000d0: 8b32 f33c 9d4c da3d e9e7 8b3d 5ef7 ce3d
000000e0: 9c69 aabd 3ba8 0f3c 7500 d03d 9baf 203e
000000f0: 8baf a03d de13 263b 4a27 0bbd 4afd 763d
00000100: aa24 7e3d ebb6 74bb 96f0 3a3d 08f7 693d
00000110: 85f6 94bc 1e09 11bd 78b8 c3bd a2ee ab3b
00000120: e403 2a3d 8696 d83d 6a7c 8abd a3c2 513d
00000130: 044d 513d eb65 abbd 36b4 a8bc 6c82 da3d
00000140: ac3b 403b bdce 13bd c595 fa3c 7f5c 93bc
00000150: 74a6 f73b 1305 b8bd 3f0a d33c a4b1 bdbc
00000160: 90b1 41bd ae91 a83d 259b 83bd 7a36 fe3d
00000170: ee3d ad3d f4f5 12ba 6ab1 a0bd f22e 8dbd
00000180: 2507 25bd 7c6b 123c 78b8 a43c fc84 033c
00000190: 9b2f c63c 44bf 0abe 4b28 b53d 1d52 273e
000001a0: 683e 56bd 570e 7b3d ea5d a03c ae06 98bd
000001b0: f4be 823d 66d6 e9bc ff6c 1abc d6fb a8bc
000001c0: 4112 b03d 473d 20be cf0c bdbd 9a00 c63d
000001d0: da92 703d ff99 dfbd 17bf a3bb f110 3abd
000001e0: 31fa 30bc e137 a5bd 84f3 113e b80b 21bd
000001f0: 44e9 a2bb 40c4 89bd 7032 e6bd 56b1 b93d
00000200: 840d 0f3e b36b d5bd 1173 103d 2b76 efbd
00000210: 972d 37bd 587e a33d e691 20be 0ecd 873c
00000220: c618 203e 80b0 4d3c d85d 1f3d 003a 873c
00000230: 93fb 87bc d34e 0cbd 037f c6bd 8904 213d
00000240: a527 803c 1283 9e3d 095f 773d 9020 c2bc
00000250: 5204 933c fb8f ac3c d91f d53c 5adf a1bc
00000260: 97ea 5bbd 11dc d73d bec7 113d 29c3 bdbd
00000270: 59d2 9abd e7a1 ab3c 7518 2b3e e54b 99bc
00000280: b3bd b0bc 8074 d83d 9fbb a03d 4f91 1bbd
00000290: 4581 5d3d 703f fe3d d91e e13c 7926 8abb
000002a0: a925 fe3d 6d9e 08be d9b5 b4bc 3745 a2bd
000002b0: 0659 f2bd a547 8bbd 7481 193d ca14 dfbc
000002c0: ea4d 993b ae51 a63d 2010 10be b8c4 83bd
000002d0: 8824 0b3e 3409 a4b9 1867 7cbd ecad 823c
000002e0: 677e ff3c f14a f8bd 0a70 20be 75ec 8cbd
000002f0: a86f 85bd 8b01 253d 3534 91bd ffbd 07be
00000300: 74d8 18be 03dc 8a3c 8bb0 f33d 981d 8cba
00000310: b8af ff3d 0f0b 80bc 19fc 833b 1791 373d
00000320: 8718 92bd 36c0 47bd 70c1 f8bd cd9b ff3d
00000330: b05d 19bc 940d 41bc 04bf 073b 67f5 c1bd
00000340: e783 f9bd a281 b7bd a327 6bbd 4d91 fe3b
00000350: e646 98bd 9e2b 293d dc9c 7f39 a4e8 373e
00000360: 243f a0bd 5831 f8bd 4f2c 973d 6276 043e
00000370: d145 51bc dfb0 26be 130a 303d 596c c33d
00000380: 184c edbd f1b9 0c3e 39c4 da3b 37ac 9fbc
00000390: b91d 8d3d 5d06 cabd 374c 0a3d 2011 453d
000003a0: 0fab 893d ee9f 86bd e8a2 59bb afa6 debd
000003b0: 6d80 993d a6dc d6bd 5be3 98bd 44bf b1bc
000003c0: 33ba 4fbd 7e48 5dbd ba31 0ebd 6731 4b3d
000003d0: 1cc7 92bd 9e63 b83d 69f3 7ebd f283 2d3d
000003e0: d85e f0bd 9205 a3bd ee16 12be 804b 77bd
000003f0: fc2b 863d bdb4 c7bd 36dd 203e 3cb8 07bd
-0.012509915 0.02044607 -0.016322616 -0.0056230472 0.03928207 -0.018144194 0.14984621 -0.045350738
-0.010211757 -0.14103189 0.02742578 -0.00019625617 -0.04168872 -0.087665565 -0.08617977 -0.03299495
-0.11431864 -0.066982575 -0.005694974 0.037675448 0.023121797 -0.07226288 -0.08347598 0.05462484
-0.05972156 -0.0538348 -0.048844565 0.029474186 0.0328872 0.14363079 -0.011531378 0.04631123
0.054001644 0.15704183 0.08516361 0.04630449 -0.1355542 0.08928725 -0.06661546 -0.013404716
-0.059810795 0.033032008 0.07146909 -0.025227975 0.09907791 0.08430829 0.049688604 0.05228119
0.0019686609 0.089719765 -0.13067977 -0.12745021 0.029687187 0.10659144 0.06831343 0.10105775
-0.08320925 0.008768137 0.10156337 0.15691988 0.07845982 0.0025341432 -0.033973016 0.06030015
0.062046684 -0.0037340473 0.045639597 0.057120353 -0.018183956 -0.035409085 -0.09556669 0.005246953
0.041507617 0.10575585 -0.06762011 0.05121101 0.05109884 -0.08369049 -0.020593744 0.10669407
0.0029332442 -0.036085833 0.030588994 -0.017988442 0.0075576846 -0.08985343 0.025761722 -0.023155995
-0.047288477 0.08230911 -0.06426076 0.12412734 0.08459078 -0.0005606108 -0.07846339 -0.0689372
-0.040290017 0.008936759 0.020107493 0.008027311 0.024192622 -0.13549525 0.08845576 0.16339917
-0.05230561 0.061292972 0.019576032 -0.07423149 0.06384078 -0.028544616 -0.009425401 -0.020627897
0.08597232 -0.15648375 -0.09230959 0.096680835 0.0587338 -0.10918044 -0.004997145 -0.045426313
-0.010801838 -0.08067299 0.1425305 -0.039317816 -0.004971655 -0.06726885 -0.11240089 0.09067027
0.1397 -0.104209326 0.035265986 -0.116924606 -0.044721212 0.079830825 -0.15680656 0.01657727
0.1563445 0.012554288 0.038907856 0.016507149 -0.016599452 -0.03425486 -0.09692194 0.039310966
0.015643904 0.077398434 0.060393367 -0.023697168 0.017946396 0.021064749 0.026016163 -0.019759823
-0.05369052 0.10540021 0.03559088 -0.092657395 -0.07559652 0.020951224 0.16708548 -0.018712947
-0.02157483 0.105690956 0.07848286 -0.037980374 0.05407836 0.124144435 0.02748053 -0.004216012
0.12409527 -0.13341685 -0.022059368 -0.07923358 -0.11833386 -0.068007745 0.03747697 -0.027231593
0.0046784775 0.08121048 -0.14068651 -0.064340055 0.13588154 -0.00031287374 -0.061621755 0.015952073
0.031188203 -0.12123669 -0.1566774 -0.06881038 -0.06515437 0.040284675 -0.07090036 -0.13256072
-0.1492632 0.016950613 0.11898907 -0.0010689972 0.124846876 -0.015630273 0.004027855 0.044816103
-0.071335845 -0.04876729 -0.1214627 0.124808885 -0.009360716 -0.011783022 0.002071322 -0.09470635
-0.121833615 -0.08960272 -0.057410847 0.007768786 -0.07435398 0.041301362 0.0002437713 0.17959839
-0.07824543 -0.121187866 0.07381498 0.12935784 -0.012772993 -0.16278408 0.042978358 0.0954215
-0.11586779 0.13742806 0.0066762236 -0.019491298 0.06890435 -0.09864495 0.03376409 0.048112035
0.0672208 -0.06573473 -0.0033208672 -0.10871636 0.074951984 -0.10491304 -0.074652396 -0.021697648
-0.050714683 -0.054024212 -0.03471539 0.04960766 -0.07166883 0.090033755 -0.062243853 0.04236216
-0.1173684 -0.07960047 -0.1426656 -0.060374737 0.06551358 -0.0975127 0.15709385 -0.033134684

weight_hh_l0 f4 [256, 64]
00000000: 5a0c 033e c323 763c 0e92 6b3d f344 ebbd
00000010: f1b9 c6bc e08c ed3d 2a8a a23d 253a 1ebe
00000020: d696 3abd d00b 053e 60fd f4bd 41d7 c33c
00000030: 6f6a 9f3d bfc3 6ebd 00bf 213e b40b 85bd
00000040: 40b8 363b 0da8 243e 06cc 063e 97ea 80bb
00000050: 2166 aebd af1f fd3c bd94 9bbd 6074 d93d
00000060: 8183 e73b 2d1d 6e3d 334c 9f3b 5796 4b3d
00000070: 12b6 21be 736c f1bd fd5a 28bd d771 303d
00000080: 4727 6b3d 4d03 aa3d 6c1d efbc 04d5 d0bd
00000090: 7c0a a1bd ca62 83bd 1d88 b0bd 77c3 8e3d
000000a0: 5f7f 8b3c 6313 a03a f0ea 28bd 976e c0bd
000000b0: 012a 1e3e 4bbb 273e 581e 98bc ad87 c5bc
000000c0: 2b2f 01be 488d 2f3e 4b33 5abd 48c4 063e
000000d0: a5ec 8d3b 446b cf3d b34f 9cbd 1f12 a13c
000000e0: 9d14 023e e7a9 7c3d 6eff bbbd 73b4 dabc
000000f0: f536 80bd b3eb cabd 36a7 c43b 5626 ec3d
00000100: 5278 403d 366f 83bd 56a8 f43d 751a 8d3d
00000110: d92f 56bc b4d3 de3c 5870 303d 9c3e 83bd
00000120: 3b8b 4d3d 2682 1b3d 03b8 01be dd02 a93d
00000130: 592a f6bd f6ab 7dbc fb11 9d3d 2fb4 d5bd
00000140: 5e5a dcbd b64e df3d 3155 d2bd 4aab 69bb
00000150: e0cb 833d 8c4b f33d 09e7 76bd 81cb 69ba
00000160: fd9f b83c 4a93 74bd 649f 3f3d 0172 32bd
00000170: 7c7c 9bbc 5c2a fbbd 7856 b1bc c1a4 793d
00000180: 3054 103c 05ab 723d aa94 253d 85f4 57bd
00000190: cf82 0a3e e299 973c 84db 13be 3fbd c4bd
000001a0: 2b9a 84bd 49be 9bbd ccd4 d2bd 4e30 b7bd
000001b0: 062b 0a3e e62b cd3d 9ff5 d53d ea78 8a3d
000001c0: 96fc 0b3d b3c3 4ebd 5f9c 34bc 0117 a6bb
000001d0: 3e91 99bd 4605 c43d f168 03be 71af 1d3e
000001e0: 464f f83d 0c4b 05bd 4598 acbd 7211 e63c
000001f0: 8eda b63c 2c70 c4bd b573 c23d 3d7f 7cbd
00000200: 618f da3c c9a9 cebc 93b3 3ebd f5cd 9a3d
00000210: d988 dfbd bbb7 b83d 6ced 4a3c b7e5 83bd
00000220: a2f8 07bd 60dc c7bc ab99 463d 3fc2 00bd
00000230: 11f2 abbd 3de9 eb3b 33be 143e 92ea 893d
00000240: a91a a1bc 21bd efbc 7c55 143d d6de 973d
00000250: bbc7 aa3d 1996 41bd af8e 28bd 6d2a 8c3c
00000260: fc3a 8c3d 9509 7d3d 945c ae3d 0517 0abe
00000270: be1d 95bd 4633 99bd c4c5 893d 33b0 6cbd
00000280: e97e 0fbe 92f9 38bd 0401 253c 40bd aa3d
00000290: 1b8d 64bd 534b a7bd 8074 d5bd 9dee 903d
000002a0: f2b0 dbbc e145 e73d 44ed 183d da22 d1bd
000002b0: 77db 40b9 0163 69bc 7be5 c73d 6330 b43b
000002c0: fd00 99bc 5846 7dbd f292 a3bd 4041 4dbd
000002d0: f2c9 1d3e 949a e63c 4039 19bd ffe2 99bc
000002e0: a5db 093e ee3a bd3d 34b9 99bd 066a 063d
000002f0: feab bb3d 6030 85bd 1b19 39bd 788e ef3c
00000300: 172e ea3d 12a1 dabd b87b 8cbc f2ab a2bb
00000310: fb0c c2bd bddc 003e 304a 533d cbda 5dbd
00000320: 15d9 c4bc eb96 b7bd 0efb d3bd 8bf1 6c3b
00000330: 8b6b 623d b119 103e ed45 6e3d 6e17 8abd
00000340: bb56 9d3c cb30 233e 2728 f5bd e384 023e
00000350: c7c5 d73c 5d67 0f3e c926 393d 92af dcbc
00000360: 45fb 353d 31dc bf3c 9954 173e 73a2 953d
00000370: 6e60 88bc 0eab 1cbe 528a 743c 9339 fdbd
00000380: 94c6 a23d 1756 ed3d 5a59 c3bd a25f b8bd
00000390: 2c93 243d 47ae 1f3e a68d 02be 38b1 613d
000003a0: cdf1 133c fa29 b4bd 4b6f 073d d226 00be
000003b0: 54e2 003e 95be 97b6 6495 763c 69bf 7bbd
000003c0: 9025 b23c 1a3b c73d 607c 223e 28aa da3b
000003d0: d7f0 8e3c 83f8 e2bd a22f c83d f20b bf3d
000003e0: 994f eb39 5aac bbbb 0686 f9bd 9547 023d
000003f0: a651 ca3c 8d13 723d 35ec e13d 3154 f33d
0.1279768 0.015023175 0.057512335 -0.114877604 -0.024258586 0.115991354 0.07936509 -0.15451868
-0.045554005 0.12992787 -0.1196239 0.023906352 0.077839725 -0.058292147 0.15795517 -0.06496373
0.0027880818 0.16079731 0.13163766 -0.0039342153 -0.08515573 0.030898897 -0.07596729 0.106179
0.007065237 0.058133293 0.0048613786 0.049703922 -0.1579211 -0.11788263 -0.0411024 0.043077316
0.057410505 0.08301411 -0.029188834 -0.101968795 -0.07863328 -0.06415327 -0.086197115 0.06970876
0.017028509 0.0012212809 -0.04123968 -0.09396093 0.1544571 0.1638004 -0.018569157 -0.024112547
-0.1261565 0.17143738 -0.053271573 0.13160813 0.0043311887 0.10127881 -0.07632389 0.019661961
0.12703176 0.06168547 -0.09179579 -0.026697373 -0.06260482 -0.09908237 0.0060013784 0.115307495
0.046989746 -0.06417696 0.1194617 0.06889812 -0.013072931 0.027200557 0.04307589 -0.06408426
0.05018161 0.037965916 -0.12667851 0.08252499 -0.12019796 -0.015482893 0.07669445 -0.10434758
-0.10759424 0.10903685 -0.10270155 -0.0035655075 0.064353704 0.11879644 -0.060278926 -0.0008918569
0.022537226 -0.05971078 0.046782866 -0.043565754 -0.018980257 -0.12263939 -0.021647677 0.060948137
0.008809134 0.05924513 0.04042498 -0.052723426 0.13526462 0.018505994 -0.14439207 -0.09606408
-0.06474718 -0.076046534 -0.10294494 -0.0894476 0.13492975 0.100181386 0.10447239 0.06761344
0.03417643 -0.050479602 -0.01102361 -0.0050686602 -0.07498406 0.09571318 -0.12833 0.15398957
0.12124495 -0.032542273 -0.084274806 0.02808449 0.022321012 -0.095917076 0.094947256 -0.06164478
0.026679697 -0.025227444 -0.046557974 0.075588144 -0.109147735 0.09019419 0.012385707 -0.06440299
-0.0331961 -0.024397075 0.048486393 -0.031435248 -0.0839578 0.007199435 0.1452568 0.06734194
-0.019666033 -0.029264988 0.036214337 0.074155495 0.08338877 -0.047262285 -0.0411517 0.017110074
0.06847188 0.061776716 0.085137516 -0.13485344 -0.072810635 -0.07480483 0.06727174 -0.057785224
-0.14013256 -0.045159884 0.010071043 0.08336878 -0.05579863 -0.08168664 -0.10422611 0.07076762
-0.026817773 0.11292625 0.03733565 -0.102117255 -0.00018392304 -0.014244796 0.09760567 0.005498932
-0.018677229 -0.061834663 -0.07987012 -0.050111055 0.15409067 0.02814988 -0.037408113 -0.018784998
0.13462694 0.092397556 -0.07506028 0.032815956 0.09163664 -0.065033674 -0.045189958 0.02924274
0.11434572 -0.10675253 -0.017148837 -0.004964345 -0.09475132 0.12584205 0.051584423 -0.054163735
-0.024029294 -0.08964332 -0.10350619 0.0036154713 0.055278342 0.140723 0.058172155 -0.0674275
0.019206395 0.15936582 -0.11970549 0.12746005 0.026339425 0.14004274 0.045203004 -0.026939187
0.044429082 0.023420425 0.14778365 0.07306375 -0.016647544 -0.15299627 0.014925556 -0.12364497
0.07948032 0.11588686 -0.09538527 -0.090026155 0.040179417 0.15593825 -0.12749347 0.05510065
0.009029818 -0.08797069 0.03306512 -0.12514809 0.12586337 -4.5223373e-06 0.015050266 -0.06146184
0.021746427 0.097280696 0.15867758 0.0066731162 0.017448826 -0.11082556 0.0977471 0.0932845
0.00044881998 -0.005727333 -0.12183766 0.031806547 0.024697136 0.059100676 0.11031381 0.118812926

bias_ih_l0 f4 [256]
00000000: 4ce9 68bd 6df1 863d 24b0 70bd 3b9e 0e3d
00000010: 3d77 73bd f2dd 87bd 7320 193e fa54 d8bc
00000020: 59f8 b83d 55bd 1abe b2f0 cf3c 92d8 003d
00000030: 3aaa 093e d502 93bd 73ac 663d ee7c c1bd
00000040: 2661 79bd 55f9 b93d 98c9 f7bd 046b 7abc
00000050: 682f 753d 1c80 123e 756d 003d 8e2e 913c
00000060: aa22 083e 60a5 ff3d e4ab ff3d 89fc 91bd
00000070: 0abc 9bbc ae72 253e 6c3c 0cbc 77c9 c23d
00000080: 0597 16bd 3ada 9c3d 1084 a0bd cdc2 263e
00000090: e727 c13d 4b91 a83d c3ce f13d d0d6 9b3d
000000a0: afe8 1cbd 8861 c8bd 8a4f ae3d 7e18 47bd
000000b0: 82ab ea3d 3592 20bd fbbd 06be a56e 8ebd
000000c0: 739f 013e fed2 f0bc ff3c 993d afcc 4ebc
000000d0: ce2e 94bc 551a b1bc ab02 863d fbd4 ed3d
000000e0: eb4a 86bd 447f b4bd 6d18 1f3e 2887 753d
000000f0: 374f 1a3c 32a6 c4bc 2eb1 1dbd f7c7 21be
00000100: 822c 8a3c fbe0 1c3e 8273 203e 5952 bd3d
00000110: 5be7 1b3e 72e7 823d ed0d 733d a979 563d
00000120: 3c7f ae3d ec13 cc3b d0f9 b23b 103b d73d
00000130: 83b0 ccbb 44bf 6b3c 28e7 0e3d fe17 aabd
00000140: e734 3cbd e7ce 213e dd43 45bc 4122 983d
00000150: de4b 293e 3118 063e 898b 8dbd 6c21 8f3d
00000160: c261 9d3d a5e3 803d 1c52 183e df1d 52bd
00000170: 0880 9a3d 7439 17bd c1db 1cbd e338 073e
00000180: 5fe0 83bd 74c0 1bbd bbd2 a2bc 0e3f 043e
00000190: 2aca 8d3d 474e 923a ea2d 093e eae7 9abd
000001a0: a714 9ebc 2bab 6d3d 2948 593d 2410 923d
000001b0: c508 86bc c54f f4bc ce9f c8bd 7066 f3bc
000001c0: efe4 013e 5567 0d3d e331 d53d ed77 113e
000001d0: 1ac1 533d d84f f8bd c20d a8bd 8158 cc3d
000001e0: 720e 043e 0678 8c3d a3e3 8c3d 691a 5b3d
000001f0: 8bb6 973c 63fb 9abc 1e49 403c 603c aebd
00000200: d785 683d 62ea 13be 6b2b 673d 6ddd 02be
00000210: 1410 cbbd 9fbb ca3d e8a9 003e 51f3 ecbc
00000220: 1d90 e63d 99b2 6fbd fe7f 00be b994 4f3c
00000230: 5817 783c fa61 3b3d 892a 1c3e 9e90 5fbc
00000240: 6e5a 9cbd c256 053e e58a c8bd 27d6 823d
00000250: 2003 85bd f192 113e 84f9 9c3c 2fe2 6e3d
00000260: 6c41 0ebe 5412 c4bd 0f57 803d 185f 1bbe
00000270: 488f 5e3d b8d8 05be 3c80 31bd 6e9a 26be
00000280: 1f51 33bd d982 c73d de20 03be 2023 10be
00000290: 09e3 c83c 73a4 333d 6948 04be 73c6 0cbe
000002a0: c238 873c 538d d0bd 23f2 053d 891b 24be
000002b0: 8123 223e 1d59 3c3d 70cf 0cbc 6804 13be
000002c0: 55e1 17be 5602 1c3e e158 e33d 13a7 fc3c
000002d0: 36a7 263d 9f0f e1bd 08d3 c6bb e961 e83d
000002e0: ab75 063e b153 c3bd 940c 1cbd c3b9 3abd
000002f0: cbb6 88bd 61d6 dcbc f78e 31bd c6f1 abbd
00000300: 5890 bfbc 64f9 20bb 794e 17bc d92f 1e3e
00000310: 2bcf f93d 9e41 4fbd 1a0a 26bd 850d d73d
00000320: 9d12 9cbd d7c2 54bd e56e 46bc 8d37 843b
00000330: 9c6d bd3d 8650 81ba 8c01 b63d 0065 68bb
00000340: da73 8dbb 9e23 f43c e738 27be f8bc ca3c
00000350: a0b7 193e 6ec6 5cbb 0716 78bc c42a 54bd
00000360: c375 143e f7b6 cb3d 98f3 b13d 3043 5fbb
00000370: e43d 1f3d 2388 12bd 3d8c 81bd c145 583d
00000380: 4d89 d03c bdab db3d 198f 4d3d ad7a 213e
00000390: b29a 23bc 496c b3bd dc96 983d e8fe 0b3e
000003a0: 276e 0a3e a601 acbd 9b0f 883d ca36 873d
000003b0: 2286 ea3d 72a9 ab3d c1b9 73bc 9d5e b4bc
000003c0: c23f 203e 1b2c 8e3d 4805 ba3d 0324 183a
000003d0: 36ad 1abe f49a 333d e88d aa3d ad4a 3e3c
000003e0: 5b18 a8bc ff7c 10bc 0c83 3a3d 6bdc e9bd
000003f0: 346a 87bd 1a73 1d3b 4c91 eb3d 8830 08be
-0.056863114 0.06589017 -0.05876173 0.03481887 -0.059439886 -0.066341296 0.14953785 -0.026407707
0.090317436 -0.15111287 0.025383327 0.031456538 0.13443843 -0.071782745 0.056316804 -0.094476566
-0.060883664 0.090807594 -0.12098998 -0.015284304 0.059859663 0.14306682 0.031354386 0.017722394
0.13294473 0.12482715 0.124839574 -0.071282454 -0.019010562 0.16157028 -0.008559328 0.095110826
-0.036765117 0.07658811 -0.07837689 0.16285248 0.09431439 0.082308374 0.11807015 0.076093316
-0.038307842 -0.097842276 0.085112646 -0.048607342 0.11458494 -0.039201934 -0.1315841 -0.069546975
0.12658481 -0.029397484 0.07482337 -0.012622043 -0.018088724 -0.021619001 0.065434776 0.116128884
-0.06557258 -0.088133365 0.15536661 0.05994335 0.0094183 -0.02400503 -0.03849905 -0.15798937
0.016866926 0.15320198 0.15669063 0.09244222 0.15224974 0.06391801 0.059339453 0.052362118
0.08520362 0.006227961 0.005461909 0.10509312 -0.006246628 0.014388863 0.034888417 -0.083053574
-0.04594889 0.15801583 -0.012040106 0.074284084 0.16532847 0.13095166 -0.0691138 0.069887966
0.076846614 0.0629342 0.14875072 -0.05129802 0.07543951 -0.036920026 -0.03829551 0.13205294
-0.0643928 -0.038025334 -0.019875875 0.12914678 0.06923325 0.0011162244 0.13396421 -0.07563765
-0.019296957 0.058024567 0.053047333 0.07131985 -0.016361604 -0.029823193 -0.09796105 -0.029711932
0.12684987 0.034522373 0.10409906 0.14205904 0.051697828 -0.12124604 -0.08205749 0.09977818
0.12896135 0.0685883 0.06879356 0.053491984 0.01851966 -0.018918699 0.0117361825 -0.08507609
0.056768265 -0.14444879 0.05643789 -0.1277978 -0.09915176 0.09899067 0.12564814 -0.028924616
0.11257956 -0.058519933 -0.12548825 0.012669736 0.015142284 0.045747735 0.15250601 -0.013645319
-0.076344356 0.13021377 -0.09792117 0.063885026 -0.06494737 0.1421621 0.019161947 0.058321174
-0.13892144 -0.09573808 0.06266605 -0.15172994 0.054335862 -0.13070953 -0.043335184 -0.16269848
-0.043778535 0.09741754 -0.12805507 -0.14075899 0.024522321 0.043858003 -0.12918247 -0.13747577
0.016506556 -0.101832055 0.032701623 -0.16026129 0.15833856 0.045983423 -0.008594379 -0.1435715
-0.14832051 0.15235266 0.11100937 0.030841386 0.04068681 -0.109893076 -0.0060676374 0.113468
0.13130824 -0.09537447 -0.038097933 -0.045587312 -0.0667549 -0.026957693 -0.043349233 -0.08395724
-0.023384258 -0.002456271 -0.009235018 0.1544794 0.12197717 -0.050599687 -0.040536977 0.105006255
-0.07620738 -0.051943626 -0.0121114 0.0040349425 0.09249422 -0.0009865917 0.08887014 -0.0035460591
-0.004316789 0.02980214 -0.163303 0.02474831 0.15011454 -0.003368761 -0.0151419705 -0.051798597
0.14498048 0.09947007 0.0868904 -0.0034067146 0.038877383 -0.03577436 -0.063255765 0.052800898
0.025456095 0.10726116 0.050185297 0.15769453 -0.009985613 -0.08760888 0.07450649 0.13671458
0.13518582 -0.08398752 0.066436015 0.06602247 0.11451365 0.083819285 -0.01487583 -0.022017771
0.15649322 0.06942006 0.090830386 0.0005803706 -0.15105137 0.043848947 0.08327848 0.011614484
-0.020519426 -0.008818864 0.045535132 -0.114189945 -0.066120535 0.0024024905 0.115023226 -0.13299763

bias_hh_l0 f4 [256]
00000000: 4c4e 6b3a 493e 4c3d 06fa e13d f18f 493d
00000010: 1f57 c63d ea03 e23d 7584 1c3c 2fcb a63d
00000020: bd08 8d3a 0ef2 8d3d 7363 44bd e100 85bc
00000030: 2480 adbd d1c8 523c 07e2 f43d 4d47 823d
00000040: 75d7 88bd afd9 ab3c b1ff a53c 5225 8f3d
00000050: 04bf 79bd 3daf 4cbd 65d4 ebbc 10c6 afbc
00000060: 89e9 0a3e efc6 e73b df40 c53c afa7 4ebd
00000070: 690f 9b3d 0186 b53d 6a6b 123d 0b18 ed3d
00000080: 738d c6bc 18d1 1abd 30c4 d53d a806 54bd
00000090: 6454 213e ce1c 51bd f62e 4e3d c70e 52bd
000000a0: afea 0b3d 6ebf b2bd 967f ba3d a8cf cf3d
000000b0: b442 333d bfe4 ad3d a60c 7f3d b91e 9bbc
000000c0: f197 553d ceba 95bd 0b7c 263e 7a88 803a
000000d0: 92c0 afbd edaf 9c3c f78c b03c d773 8fbd
000000e0: 6963 fa3d 777a e43c 68f3 7fbd 7238 8c3d
000000f0: 4f98 c4bd c217 123d 9380 113e ff04 a63c
00000100: be58 37bd da15 9f3c 2232 a23d 8e1c 113e
00000110: 341f 153e 77e6 363d a9cb d7bb da48 1e3e
00000120: 1bd9 88bd 0950 5ebd 6a70 7e3d 8098 f03d
00000130: 4431 0b3d 3bcb 8abc ab68 0a3e 82e2 93bd
00000140: 8931 59bd 991d 873c 9b35 febd 391e b5bd
00000150: 2cb9 b5bc 0a76 c63d 1aff 29be 0df7 443d
00000160: 9d08 7d3d ed29 7b3d 097e b63d c232 fdbc
00000170: 4fec 963c 9acd 273e 2a81 d4bd ab79 4b3d
00000180: 8aa0 993d 40e0 a13d a1ee 7e3c 5d1d 043d
00000190: 0b54 1f3d ce26 d53d c5a3 fc3c 8868 11bd
000001a0: 8830 b53b f60f 21bd 1f69 2c3d b150 93bd
000001b0: 3053 243e 3ca1 293c 83cb 793d a972 0c3e
000001c0: 5681 903d 4f21 c03d 635e 05bd b13e 1f3e
000001d0: 7332 adbd 4361 06be aa41 9dbd 602b 0d3c
000001e0: 8393 a4bb daa8 cd3d 8172 00bd 5e06 a63d
000001f0: 2759 88bb e9c8 a73d 967d f43d a48c b3bd
00000200: 759d b43c 04ba 92bd b98f 32bc ef01 283d
00000210: b79b 29bd 7c80 6b3d 973d b63d d16e 42bd
00000220: 2ce5 37bd 30b8 f13c 3b84 32bd 0f37 9d3d
00000230: 1970 d5bd caaf 003d 8657 0f3d 655d 453d
00000240: d819 8ebd 18d7 0d3e 9f1f 943d 647b a53d
00000250: 686a babc aaa8 003e b77e c13d 8953 9cbc
00000260: b8af 09be 9933 c2bb 3e02 a43d 837d 3dbd
00000270: d462 efbd 8dab 59bd a3a3 7ebd ca5d c9bd
00000280: 0f75 eebb c522 6b3d 43a0 523d e395 18bd
00000290: 54e3 8d3d 1597 98bb a103 dabd 2ac5 0ebe
000002a0: 80df 003e 14f3 873d eadd dabc 769e a3bd
000002b0: 5d73 123d 92a9 02bd 3d46 37bc b034 b5bd
000002c0: e8f7 223c 039d 81bd c3c5 0d3e f382 023e
000002d0: 3a5f f93d 703f 59bd 7c84 71bd 932a a73d
000002e0: 8d56 44bd a327 63bd eee1 9bbd 9ba9 8bbd
000002f0: adb1 173e 7518 8abc d552 013e 5a9b c0bd
00000300: 40aa c63d e46a df3d 829d 103e 3f39 93bc
00000310: 3744 50bd a865 ddbd 740b 4ebd 8193 1b3e
00000320: 3134 fbbc d4d0 ccbd 76c4 783d 7fb1 553d
00000330: 125b f33d 44bd 11be 2240 d13d db78 b8bd
00000340: f212 0b3e 9b8d dd3d 63b3 593c 9f31 37bd
00000350: ee5d db3d eb7c e53d e4af c8bc 3ee6 60bd
00000360: a9ee b3bb 7ec7 023e 9402 e33d 315b ca3d
00000370: 1fc9 9bbd f503 f43d 7caa 21be 82a8 e03d
00000380: b07e c9bd 2d31 d93d 2e4d debc 8139 2f3e
00000390: 3f4d 5bbd cb9d ae3d fee7 843d e3ab ca3d
000003a0: bb2a 16bc 5773 553d 0eeb 18be 22b9 ae3d
000003b0: 9900 013e 37de 6b3d b1c9 f9bd 2695 eabc
000003c0: 0084 2c3e b752 113d 6c3d 213e bc97 073e
000003d0: 2ecb e8bc d88f efbd fce0 f4bd 71d1 89bc
000003e0: 9843 7dbd b733 efbd 1d53 d23c f8e4 93bd
000003f0: f844 d5bd 3603 0cbe 81c3 183e 589f 08be
0.0008976206 0.049864087 0.11034016 0.04920954 0.09684586 0.11035903 0.009553065 0.08144223
0.001076005 0.06930934 -0.047946405 -0.01623577 -0.084717065 0.012865261 0.11957174 0.06361256
-0.0668172 0.020977823 0.020263525 0.0698954 -0.060973182 -0.049971808 -0.028787801 -0.021456748
0.13565649 0.0070732753 0.024078785 -0.050452884 0.07571299 0.0886345 0.03574697 0.115768515
-0.02423737 -0.037797064 0.104378104 -0.05176416 0.15754849 -0.05105286 0.050337754 -0.051283624
0.03415936 -0.087279186 0.09106366 0.10147029 0.043764785 0.084908955 0.062267922 -0.018935548
0.052146856 -0.07311021 0.16258256 0.0009806298 -0.08581652 0.019126857 0.021551592 -0.070045166
0.12225992 0.027890427 -0.06248799 0.068467036 -0.09599363 0.03566719 0.14209203 0.020266054
-0.044762366 0.0194196 0.07919718 0.14171049 0.14562684 0.044653382 -0.0065855575 0.15457478
-0.066820346 -0.054275546 0.062118925 0.11747837 0.03398253 -0.016942611 0.1351649 -0.07220937
-0.053025756 0.016493605 -0.12412568 -0.08843655 -0.022183023 0.09690483 -0.1660122 0.04808717
0.061775792 0.06131928 0.08910758 -0.030907992 0.018423228 0.16387025 -0.103761986 0.04967658
0.075013235 0.079041004 0.015559823 0.032254566 0.03889851 0.10407792 0.03083981 -0.03550008
0.005529467 -0.039321862 0.04209244 -0.07193125 0.16047359 0.010353383 0.0609851 0.13715614
0.07055919 0.09381353 -0.032560717 0.15551259 -0.08456888 -0.1312304 -0.0767854 0.008616298
-0.0050224676 0.100419715 -0.0313592 0.08106683 -0.0041610184 0.081926174 0.11938016 -0.087670594
0.022047738 -0.07164386 -0.010898524 0.04101747 -0.041408267 0.05749558 0.08898466 -0.047468964
-0.04489629 0.029506773 -0.043583136 0.07676517 -0.104217716 0.031417646 0.03499558 0.04818477
-0.06938523 0.13851583 0.07232594 0.080801755 -0.022755817 0.1256434 0.09447997 -0.019082801
-0.13445938 -0.005926561 0.0800824 -0.046262275 -0.11688772 -0.05314212 -0.062167775 -0.09832342
-0.007277138 0.057406206 0.05142237 -0.037252318 0.06928125 -0.0046566823 -0.106452234 -0.139424
0.12585258 0.0663816 -0.026717145 -0.079892084 0.03575455 -0.031899996 -0.01118618 -0.0884794
0.009946801 -0.06328776 0.13844971 0.12745266 0.12176366 -0.053039014 -0.058964238 0.08162417
-0.047934104 -0.055457722 -0.07611452 -0.06819459 0.14813872 -0.016857365 0.12629254 -0.09404631
0.09700441 0.1090906 0.14122584 -0.017971633 -0.050846305 -0.10810405 -0.05030389 0.15192987
-0.030664535 -0.10000768 0.060734235 0.052171227 0.11882605 -0.14232355 0.102173105 -0.09007426
0.13581446 0.10818025 0.013287398 -0.044725057 0.10711275 0.11205467 -0.024497934 -0.054907076
-0.005491097 0.12771413 0.11084476 0.09880675 -0.0760672 0.11914817 -0.15787691 0.1096964
-0.09838617 0.10605083 -0.027136412 0.1711178 -0.053540464 0.0852619 0.064895615 0.09896066
-0.009165461 0.05211195 -0.14933416 0.08531405 0.12597884 0.057584967 -0.12196673 -0.028635573
0.16847229 0.035479274 0.15746087 0.13241476 -0.028417196 -0.11697358 -0.11956975 -0.016823502
-0.06183204 -0.11679786 0.025674397 -0.07221407 -0.10413545 -0.136731 0.14918329 -0.13342035

weight f4 [14, 64]
00000000: 5702 343d 04d0 11be 9a76 223d 9445 d0bc
00000010: 6a17 1fbe 166f 8b3d 578e 143e 1fc0 40bd
00000020: 6a4f ec3d 779c 8d3c e839 2fbd 7ffc bb3b
00000030: 0b46 07be cd19 82bc e567 303d 076c 923c
00000040: 0977 26be edd2 9c3d 137f 013d 6eb5 003b
00000050: 8946 18be 81a4 053e 72e1 a5bd 4163 943d
00000060: 91ba 0dbe ac94 9abd b6c2 ad3d ca15 55bd
00000070: 8f1d b3bd 3dea ecbd 7af9 e43c 183f 14be
00000080: 4803 01be 9ea0 bb3d 3d18 bbbb d103 01be
00000090: d2f4 de3d 56a6 9d3d 154a d5bc 15f7 373c
000000a0: 9e92 e23c f9ec 563d dbdc f4bd f7b0 9abd
000000b0: 9be4 c63d 3fb6 163d ae69 c63d dfdc 18bd
000000c0: 5cee 1fbe a157 053d 12ff fc3d b6a3 9f3d
000000d0: bbf5 06bd cd0f 823a 4b7f 4ebd fd02 063e
000000e0: c3d3 813d d05c 383d adcd 92bd cef4 b23c
000000f0: 5fba ca3d e263 9c3c 3b51 e23d 8c46 ca3d
00000100: 5939 0c3d 47fd cf3c 4c74 cf3d baa3 b63d
00000110: f77f 923d 5f38 e5bc 8e19 cb3c c532 e03c
00000120: 399d e23d eb05 ec3c 48b9 adbd 5ca7 9a3d
00000130: f3d4 37bc 787b e93c 83a6 123d c196 73bd
00000140: 47cf e5bd 120e 9fbd 11cf 0abd e012 bbbb
00000150: c40e 02be 9956 c63d aeea 093d 806f 0f3e
00000160: d761 d13d 76d8 2a3d 932a bebc 1d16 d33c
00000170: d980 953d 766f ebbd bc67 18bd 81b7 dcbd
00000180: 3ce9 9c3d 58eb 993c 5690 b7bd 3ebb 0dbe
00000190: 6b18 46bd 404f 093e 6daa 42bd 01b9 bdbd
000001a0: 76fb 003e 7ff4 72bd 5c0d 14be 1668 d6bd
000001b0: 72a6 62bd ef9d a0bd d4e4 a13d 0f5c b6bd
000001c0: 0cce c73d 10ad 8bbd 0790 9e3d 5455 fc3d
000001d0: b775 a1bb 5aab 3c3d 1bb9 79bd 83ca 0f3d
000001e0: 73f2 dfbc 6218 1bbd 20e2 833d cb95 a3bd
000001f0: 355d 38bd 226c 78bd 918b e83c 0e7a 06bd
00000200: b8f4 0abc 259d 5bbc 946c 283d 218b 88bd
00000210: e45d a93d 896f c43d 7464 333d e072 183d
00000220: 9e02 8c3d e9ca 77b9 05c5 343b d818 cc3d
00000230: c6a8 983d 9358 dbbb 6a3e 15bb 4154 5fbc
00000240: 1505 e7bd d606 18bd 65e8 5d3d e40f 9a3d
00000250: 17f7 a73c cd9c 90bd 5ece a53d b28f b53d
00000260: aa18 6a3c 03d7 a2bd db24 fe3d 108d 873c
00000270: f8d7 43bc 4ffd 08be 43b3 8dbd 2dd1 cdbc
00000280: fdae 10bd 15be 4d3d b21a 4f3d 528a 2dbd
00000290: 144f 9f3d 60bb ccbc fb1c 00be 213f 05be
000002a0: e45a b83d 35af 29bd 10f6 d43c 073b 56bd
000002b0: e861 4f3d 41ca 22bd fbca 83ba 4d70 47bb
000002c0: 8019 0ebd 6e6e 6a3c 4c13 bb3c a37d 073e
000002d0: 1064 60bc 6828 dcbd 0d4c 15bd 7ec3 5abd
000002e0: effc a93d 0961 3cbd 9fbb aabd bb82 bc3b
000002f0: 99d8 c13d c762 593d 76ba d93c 503f 423c
00000300: ea62 f4bd f05f a43c d5b1 d33d 20d9 f13d
00000310: 7fa7 01bd e4c5 b23d de19 b6ba d7cc 7abc
00000320: c537 3ebd 20da c8ba fd96 e0bd 6764 02be
00000330: e3fa 5fbd 0cdb 37bc bc9b 29ba 4ec2 b5bc
00000340: e084 383c aeef bd3d 11fb 013d 05a3 aebd
00000350: 55d3 ec3b 3057 253d dc84 42bd dba9 b13d
00000360: 9bb3 253b 61e5 7bbd fcab b1bd 58f0 2a3d
00000370: 86c0 93bd fd58 98bc b793 4e3d 84c6 e93b
00000380: 63c7 2ebc 36a7 50ba 9439 ab3d 23ad d03d
00000390: 8471 a03d eb03 6fbb d177 a5bd 83e4 25bc
000003a0: 260c 2e3d 9072 cb3c 8c56 8a3c d0f3 d93d
000003b0: 5849 13bd 7f08 6bbc 84bf e23a 90f5 1cbd
000003c0: ec6a 49bd 3d3e b53d 3b6e 49bd bfb7 b9bb
000003d0: 8cbc ddbd 16de 96bd 72df 9abd 8fde 4e3d
000003e0: b317 363c 478c ec3d b8b4 af3d 01c5 173c
000003f0: deea 213d 0612 e43d c35b aa3d 631d b23d
0.043947544 -0.14239508 0.03966389 -0.025423802 -0.15536276 0.06808297 0.14507423 -0.04705822
0.115385845 0.017286522 -0.042779833 0.005736887 -0.13210313 -0.015881443 0.04306783 0.017873777
-0.16256346 0.076574184 0.031615328 0.001963939 -0.14870657 0.13051035 -0.08099641 0.07245494
-0.138407 -0.07547888 0.08484404 -0.052022733 -0.08745872 -0.11568115 0.027950991 -0.14477193
-0.12598908 0.09161495 -0.0057096765 -0.12599112 0.108865395 0.07697742 -0.026036302 0.011228343
0.027657803 0.05247209 -0.11956187 -0.075532846 0.09711572 0.036794897 0.096881256 -0.037320014
-0.1561827 0.032554273 0.12353338 0.07794897 -0.03294919 0.0009922922 -0.050414365 0.13087077
0.063392185 0.045010388 -0.07168136 0.021845248 0.09898829 0.019090597 0.1105065 0.09876737
0.03423438 0.025389327 0.10129604 0.08917947 0.071533136 -0.027980981 0.024792459 0.027367959
0.11065144 0.028811416 -0.08482605 0.075514525 -0.011220205 0.028501257 0.03580333 -0.059469942
-0.11221176 -0.077663556 -0.03388888 -0.005709037 -0.12700945 0.09684486 0.033671074 0.14007378
0.102237396 0.04171034 -0.02321366 0.02576738 0.07299966 -0.11495869 -0.037208304 -0.10777188
0.076616734 0.018788978 -0.08963077 -0.13840958 -0.04836313 0.13409138 -0.047525812 -0.09263802
0.12595925 -0.0593152 -0.14458221 -0.104690716 -0.055334516 -0.078426234 0.079049736 -0.089042775
0.09756097 -0.068201184 0.07742315 0.123209625 -0.004927363 0.04606185 -0.060967546 0.03510524
-0.027337288 -0.03786505 0.06439614 -0.07987555 -0.045010764 -0.06065 0.028386863 -0.032831244
-0.008481197 -0.013404165 0.041119173 -0.06667162 0.08269861 0.09591586 0.04379697 0.03721893
0.06836437 -0.00023631346 0.0027583253 0.09965676 0.07454066 -0.0066939085 -0.0022772797 -0.013630928
-0.11280266 -0.037115894 0.054176707 0.07522562 0.020503564 -0.070611574 0.08096002 0.08865298
0.014288107 -0.079511665 0.124093734 0.016546756 -0.011953346 -0.1337788 -0.06918957 -0.025124157
-0.03532313 0.050230104 0.050562568 -0.04236824 0.07778755 -0.024991691 -0.12511055 -0.13012363
0.09001711 -0.041426856 0.025996238 -0.052302387 0.05063048 -0.039743666 -0.0010055 -0.0030431927
-0.034692287 0.014308555 0.02283635 0.1323152 -0.013695732 -0.107498944 -0.03644948 -0.053409092
0.083001964 -0.045990977 -0.08336567 0.005752889 0.09465141 0.053072717 0.02657817 0.011855915
-0.11932929 0.020065278 0.10336653 0.118089914 -0.031653877 0.08729151 -0.0013893207 -0.015307627
-0.046439905 -0.0015323795 -0.10966299 -0.12733613 -0.054682624 -0.011221658 -0.00064700446 -0.022187378
0.011262149 0.09274231 0.031733576 -0.08527187 0.007227341 0.04036635 -0.047489986 0.086749755
0.0025284055 -0.06149805 -0.086753815 0.041733116 -0.07214455 -0.01859712 0.05043384 0.0071342606
-0.010667655 -0.00079594867 0.083605915 0.10189273 0.078341514 -0.003647084 -0.08079494 -0.010125282
0.042492054 0.024834901 0.016886972 0.10642207 -0.035958618 -0.014345287 0.0017299508 -0.038320124
-0.049174234 0.08849762 -0.04917739 -0.005667656 -0.10826978 -0.07366578 -0.0756215 0.050505217
0.011114049 0.11550193 0.08579391 0.009263278 0.039530627 0.1113625 0.083182834 0.08697011

bias f4 [14]
00000000: ba5e 09bd 3f15 c2bc a67f 963d dc29 bb3d
00000010: c4c8 a33d d359 d2bd 61d0 08be dfae 2ebd
00000020: 6a2e c1bc 36e9 05be fc1d 22be 213e dbbd
00000030: 1af6 a13c 24b0 28be
-0.033537604 -0.023691772 0.07348566 0.091388434 0.079972774 -0.10271039 -0.1336074 -0.04264724
-0.023581702 -0.13077244 -0.1583175 -0.107052095 0.01977067 -0.16473442
