t1_RNN_word2vec.pt (torch, 101400 bytes, 6 tensors)

weight_ih_l0 f4 [64, 300]
000000 ed 5e 09 be 77 1c 92 3d 23 7a 4f bd d1 69 a1 3d
       -0.13415118 0.071343355 -0.050653588 0.07881511
000010 df 8d 79 3d 5b 1b 9d 3a 9c ec 19 3e 07 62 b6 bd
       0.060926314 0.0011986302 0.15031666 -0.08905416
000020 f3 70 f3 bd e4 f4 a8 bc 76 e1 b0 bd 5a 62 ab bd
       -0.11886778 -0.020624585 -0.08636753 -0.083683684
000030 c9 f8 fe 3c 76 d0 b7 3a dd ff 14 3e f9 e0 85 3d
       0.03112449 0.0014023918 0.14550729 0.06537051
000040 85 b8 64 bd 6b 44 b8 bd 5c 57 68 bd fb 3f 1a 3d
       -0.055840034 -0.08997425 -0.056723937 0.037658673
000050 fa 9f 27 bd aa a1 71 bc 30 8c 29 3e 24 2a 61 bd
       -0.04092405 -0.014748016 0.16557384 -0.05497183
000060 df 78 6a bd b9 7b 47 3c ee 3b 69 bd 04 3b 95 bd
       -0.057244178 0.012175494 -0.05694192 -0.07286647
000070 eb a9 b7 3d 77 6e 99 3d 17 a2 d9 bc 9a 58 10 3c
       0.08967956 0.074917726 -0.026566548 0.008810187
000080 f2 0d 9a 3d 66 12 04 3e 54 59 08 3e 0e 05 db 3c
       0.07522191 0.12897643 0.13315326 0.026735809
000090 43 96 50 3d e7 61 86 3d b2 59 66 3e 4c 7b d1 bd
       0.05092455 0.06561642 0.22495154 -0.10228595
0000a0 b8 e6 3c bd bd 52 a1 3c 64 19 8f 3d ae 1b e1 3d
       -0.046118468 0.019692773 0.06987265 0.109916076
0000b0 8d c1 12 3e e4 29 8b bd f8 eb 39 be 5a 60 84 bd
       0.14331646 -0.067950994 -0.18156421 -0.0646369
0000c0 b1 3d 1f 3d 95 be 40 bb 8a 82 4c 3d 52 60 ae bc
       0.038877193 -0.002941047 0.04992918 -0.021286163
0000d0 5c 55 a0 3d 02 76 48 3e 32 e4 fe 3b 0b 14 79 bd
       0.07828781 0.19576266 0.007778668 -0.06081013
0000e0 eb 74 de 3d ee dc 67 bd 11 d4 4f 3e 13 80 04 3d
       0.10862144 -0.05660718 0.2029574 0.032348704
0000f0 b4 36 2d bd 79 c6 08 3e b5 95 e2 3d 49 a4 71 bd
       -0.042288497 0.13356961 0.110637106 -0.058994565
000100 04 03 8b 3d 0e bd a4 bc 22 9c b1 bc ce d7 e6 3d
       0.067876846 -0.02010968 -0.021680895 0.1127163
000110 71 59 9d bd ec 4f 2a be 43 88 a1 3d fb 61 fc 3d
       -0.07683075 -0.1663205 0.07887318 0.12323376
000120 9e ba 0e bd 86 e1 25 bc cf 7e 8b bd b3 b0 79 3d
       -0.03484594 -0.01012457 -0.06811296 0.06095953
000130 b5 90 1d 3d cf 63 5b 3d e6 1c ff 3b e6 73 d0 bd
       0.03846808 0.05356198 0.0077854274 -0.10178356
000140 2d d4 4d 3d 84 fb d2 3d 2c 33 f4 3d 51 c8 e8 bd
       0.050251175 0.10301879 0.11923823 -0.11366332
000150 8e bb 2e bd d9 25 2a 3d ff 94 6f bd 53 f0 3d 3d
       -0.042659335 0.04154 -0.058491703 0.04637177
000160 5d 66 17 3e f6 f6 bd 3d ac fc ed bd 20 7b 1b 3e
       0.14785142 0.0927562 -0.11620459 0.15183687
000170 bd b5 2d bd 7a 24 d5 3d bc ee 9b bd 38 09 60 3d
       -0.042409647 0.10407348 -0.07613894 0.05469629
000180 7d 3d ee 3d f2 c6 5a bc 39 8e 45 3e 74 2d c7 3d
       0.11632822 -0.013353096 0.19292535 0.09725466
000190 2c 60 e8 bd 04 c1 2a 3e 1d 9d 3a 3e 4a c4 0c bc
       -0.11346468 0.16675192 0.18223996 -0.008591721
0001a0 5e 47 cc bc 72 05 1f bc 51 8e 32 bd fd 0d 77 3d
       -0.024936374 -0.009705888 -0.043592755 0.060316075
0001b0 4f 6f 14 bd ea 6e 09 3d e1 ca ab 3d f6 ff e5 3d
       -0.036238965 0.03355304 0.083883055 0.11230461
0001c0 10 ca c7 bd ba e7 bb 3c e6 41 dd 3d 7f 76 a2 3d
       -0.09755337 0.022937644 0.10803585 0.079327576
0001d0 62 4a bb bc fe e7 0a be cd ab 00 3e 06 1a 79 3d
       -0.022862617 -0.1356506 0.12565537 0.060815834
0001e0 62 4e 35 be 10 12 b3 3c b0 62 dd bd 99 3f 7e 3b
       -0.17705682 0.021859199 -0.10809839 0.0038795231
0001f0 a4 44 4d bc 95 a1 11 bd a2 04 73 3d be 9f 4b bd
       -0.012528572 -0.035554487 0.05933059 -0.04971289
000200 27 61 86 3c 71 11 af bc 91 a3 0d be 47 62 b4 3d
       0.016403748 -0.021370621 -0.13831927 0.088078074
000210 15 7b fb 3d 07 6d d0 bd c0 07 05 3e 18 ce 73 bd
       0.122793354 -0.10177045 0.12991238 -0.05952272
000220 f1 e2 0c bd 4e fe b2 bd 1d ba 4d bb 52 d6 18 3c
       -0.034396116 -0.08739911 -0.003139145 0.009328442
000230 f9 19 cb bc 1d a9 59 bb 65 29 21 3e 3a 3c a8 bd
       -0.024792658 -0.0033212372 0.15738447 -0.08214612
000240 93 a9 59 bd 77 6e 06 3d 7b 7b ea 3d 3c 33 13 be
       -0.053140234 0.03282019 0.11449333 -0.14375013
000250 39 b8 91 bd bf 13 1d 3d b6 44 75 3d 0b b6 d0 bd
       -0.07115216 0.03834891 0.05987998 -0.10190972
000260 52 8f 8d 3c 21 ba fb 3d b4 a6 98 bc 18 c1 f4 3d
       0.017280255 0.12291361 -0.018634178 0.11950892
000270 a2 a6 eb bd 12 45 ff bd 01 cb 11 bd 56 77 07 3e
       -0.11506392 -0.12464346 -0.03559399 0.13229117
000280 fc e0 64 3c 7f be f5 bd e6 2c f2 bc 20 fa 8d 3d
       0.013969656 -0.11999225 -0.029562425 0.06932473
000290 d0 b3 2a bd 37 08 8e bb ca 7c 94 bc 02 d5 db 3d
       -0.04167539 -0.0043344754 -0.01812591 0.107339874
0002a0 44 3c 85 bc cc 77 8d 3d df a5 fe 3d 5b 06 ea 3d
       -0.016264088 0.06907615 0.12433981 0.114269935
0002b0 b9 41 49 3d 53 36 9f bd 86 85 0f 3d b4 89 2b bc
       0.049134944 -0.077740334 0.035039447 -0.010469843
0002c0 76 83 f6 3d 3d 85 d1 bc a7 ba 51 3e 02 2f ba bd
       0.12036793 -0.025576228 0.20481358 -0.09090997
0002d0 4a 47 2a 3d 09 2f 19 3d 28 f6 bb bd 3c b7 50 3d
       0.041571893 0.03739837 -0.0917781 0.050955996
0002e0 e2 62 f1 bc d6 18 3d 3d e4 50 d4 3c 69 0c 13 be
       -0.029466096 0.046166264 0.025917478 -0.14360203
0002f0 37 1f 77 bb 6b 2e 35 bd a2 e2 ab 3d a3 b2 4b 3d
       -0.0037707814 -0.04423372 0.08392836 0.049730908
000300 35 4c c4 3c 89 dd 71 bb 6e ac 03 3e 0a 7e 02 bd
       0.02396212 -0.0036905727 0.12858745 -0.03185848
000310 6c bb 8f bd 4c 50 e0 bd 95 58 ac bc 97 15 3b 3d
       -0.0701817 -0.109528154 -0.021038333 0.045674887
000320 5e fa 45 3e c4 8b 86 3d e5 63 3c 3c 9c 8b 7f bd
       0.19333789 0.06569627 0.011498426 -0.062389
000330 57 d3 32 bc dd fe f1 3d 90 5f 27 3e e1 0d a9 bd
       -0.010914645 0.118161894 0.16345048 -0.082546
000340 53 63 58 bb 9e 38 bc bd 5d e0 45 bc 20 c8 88 3c
       -0.0033018186 -0.09190486 -0.012077418 0.01669699
000350 f3 30 5e 3d 5c 85 eb bd 1a a2 0a bd bf 63 c8 bd
       0.0542459 -0.11500046 -0.033846 -0.0978465
000360 0f 4a 42 3e 62 f0 2a 3e 18 7e 34 be e7 e2 04 3d
       0.18973564 0.16693261 -0.17626226 0.032442953
000370 77 c6 8a 3d a3 50 f6 bd 55 af 3b be b1 db c1 3c
       0.067761354 -0.12027099 -0.18328603 0.023664327
000380 bc 6f 12 be ef 18 fe 3d a1 69 39 be 48 06 da bd
       -0.14300436 0.124070995 -0.181067 -0.10645729
000390 ed e2 ad 3c b1 ed 69 3d e3 c9 00 be 2c 55 00 bd
       0.02122637 0.057111446 -0.12577014 -0.031331226
0003a0 d2 99 92 bd 10 ca 9f 3d 8a 19 14 3e 95 a1 f2 bb
       -0.07158245 0.07802212 0.14462867 -0.007404516
0003b0 1a dd e5 bd d9 40 4a 3b f4 6b 13 be f6 be 9d 3b
       -0.112238124 0.0030861406 -0.1439665 0.004814024
0003c0 03 7c 9e 3c a4 6b 0d 3e c1 bf 16 bd 98 9d 04 3c
       0.019346243 0.13810593 -0.036803965 0.008094214
0003d0 fd b0 bd 3c ef f1 69 bb 28 ed 39 bc 06 b0 06 3d
       0.023155684 -0.0035697182 -0.011348046 0.032882713
0003e0 d4 a2 5f 3e 9f 21 d8 bc 37 9b 40 3e 4b 2b eb 3d
       0.21839458 -0.02638322 0.1880921 0.11482867
0003f0 84 0e ae bd 15 d6 95 bc 16 e5 0a 3d 8e b9 96 bb
       -0.084988624 -0.018290559 0.03390988 -0.0045997566

weight_hh_l0 f4 [64, 64]
000000 c3 10 4d be 92 72 48 bd e0 70 00 3e 8f 0f 01 3e
       -0.20025925 -0.048937388 0.12543058 0.12603591
000010 f9 f3 10 3e 79 31 52 bd 4f e9 8e bd e0 38 ec 3c
       0.14155568 -0.051316712 -0.06978094 0.028835714
000020 65 0e db 3c e7 82 17 3d ef 43 94 ba c4 eb aa bc
       0.026740262 0.036990073 -0.001131175 -0.020864375
000030 94 b6 96 3d 9e ea 0a be 42 4c 9b bd c9 c9 3d 3d
       0.07359043 -0.13566062 -0.075829044 0.046335015
000040 92 5c e4 bd 46 d5 66 3d 0f 98 8a 3b 99 1d 0c 3e
       -0.11150469 0.056355737 0.0042295526 0.13683166
000050 78 ea d1 bd e7 66 25 3d d7 7f 96 3c 7f 26 24 3d
       -0.102497995 0.04038134 0.018371506 0.040075775
000060 fe 0a fa bd cd b0 e6 3c 7d 9d b9 3d 8a 79 c5 bd
       -0.12209128 0.028160477 0.09063242 -0.09642322
000070 e5 bd 87 3d cd 5d e7 3d d6 58 a1 bd 52 28 82 bb
       0.066280164 0.11297188 -0.07878272 -0.0039720917
000080 44 1f 6c 3c cc 7c 96 3d 2d f6 9d 3d 55 be 11 3d
       0.014411751 0.07348022 0.0771297 0.035581905
000090 ba e5 90 3d 62 42 97 3d fd 95 3c bd 1a 5c c7 bd
       0.07075067 0.073857084 -0.046041477 -0.09734364
0000a0 a8 2b ff bb 96 6b 90 bc 99 b1 50 bd d7 70 4d bd
       -0.0077871867 -0.017629426 -0.05095062 -0.05015644
0000b0 48 b4 a6 3d 65 c1 91 3d e3 dc 8e bb 28 ee 8f 3c
       0.08139855 0.07116965 -0.004359828 0.017569616
0000c0 4e 17 a4 3a 2c 8f 20 be 50 43 06 3d bb 4f d3 3d
       0.0012519152 -0.15679616 0.032779038 0.10317942
0000d0 2d d9 b0 bd b3 7c c2 bd 7e 8a 7a bd 15 d3 64 bd
       -0.08635173 -0.09496441 -0.061167233 -0.055865366
0000e0 4f 85 98 3b ba 39 eb 3d 91 51 c9 bd 48 b7 e4 3d
       0.0046545635 0.1148562 -0.09830011 0.111677706
0000f0 82 86 dd bd d5 0d d2 3c 62 d2 f7 bd a6 9c d9 bd
       -0.10816671 0.025641361 -0.12100674 -0.106255814
000100 c0 8e 50 3d c2 8c b3 3d ff 46 07 3e 0c f3 01 3c
       0.050917387 0.08767082 0.13210677 0.007931482
000110 da 49 ed 3c d1 e0 07 be 31 e5 ac 3d 73 f9 81 3d
       0.02896588 -0.13269354 0.08442152 0.06346407
000120 88 1d 2d 3e cd 27 96 bd f9 1f 81 bd 15 13 11 3e
       0.16905797 -0.0733181 -0.063049264 0.14167435
000130 a0 9e c0 3d b3 fc 85 3d 4c 77 78 bd 17 0b b4 bd
       0.09405255 0.06542339 -0.060660645 -0.08791178
000140 8d 05 c3 3d ee 26 df 3d 90 dd cf bd 51 ad 34 3d
       0.09522543 0.10896097 -0.101496816 0.0441106
000150 54 b3 b3 3c d4 8b 26 be d8 54 b8 bd bf a2 db 3c
       0.021936096 -0.16264278 -0.09000558 0.026811002
000160 30 ea 43 3c f2 25 21 3e 7f 94 7b bc a7 81 3c bd
       0.01195769 0.15737131 -0.015355228 -0.046022084
000170 60 c8 e6 bd 7f f5 4a 3d f6 c4 3c 3d 99 77 a2 3d
       -0.11268687 0.04955053 0.046086274 0.07932968
000180 81 25 e3 3c 2c 0b 89 3d ce 05 e9 bd 10 05 be 3b
       0.027727844 0.06691584 -0.1137806 0.0057989433
000190 0e 3f ce 3d 33 e3 0a 3e 64 1f 87 3a 5b d3 20 3c
       0.100706205 0.13563232 0.0010309038 0.009816016
0001a0 b2 27 4a 3d 02 c1 1b 3e 44 a8 2e bd 2d 72 db bd
       0.049354263 0.15210345 -0.04264094 -0.10715137
0001b0 ca 18 b8 39 eb 13 11 3e 61 2c e9 3b 20 60 1e 3d
       0.00035113684 0.14167754 0.007115886 0.03866589
0001c0 28 af 03 3d 32 ba bb 3d 88 2e ab bd 8e d5 ad 3d
       0.032149464 0.09166373 -0.083584845 0.08487998
0001d0 a3 ab 00 3e 02 05 01 be 18 ed af 3c 41 af 3e 3d
       0.12565474 -0.12599567 0.02147536 0.046553854
0001e0 fa 33 bf 3d c2 65 a9 3d 8f 75 b7 3b f0 8f 01 3d
       0.093360856 0.08271362 0.005598731 0.03163141
0001f0 12 90 2b 3e 6b 25 0f 3c ea c3 fb bd 3e 89 dc 3d
       0.16754177 0.0087369485 -0.12293227 0.10768364
000200 8e 5d 82 3b ba 67 51 3d bb 24 0a bd ab ea 78 bc
       0.0039784377 0.051124312 -0.033726435 -0.015192668
000210 93 05 98 bd d3 84 e4 bc df b2 25 3d ad 37 29 3e
       -0.07422938 -0.027895367 0.040453788 0.16525145
000220 dd 23 45 3c b5 56 dd bd 43 f1 f8 bd 49 31 d7 3d
       0.012032476 -0.10807554 -0.12155392 0.10507447
000230 ca 30 e3 3d e8 ae 80 bc ca 9a d4 bc 7c 54 ac bd
       0.1109329 -0.015708402 -0.025952715 -0.084145516
000240 ae 0b 45 3e 0c 44 7d 3c 65 6f bd 3c 45 e3 af 3c
       0.19242737 0.015458118 0.023124406 0.021470675
000250 78 c4 06 bd d3 58 09 be 14 c6 d5 bc fe 71 d3 bd
       -0.03290221 -0.1341279 -0.026095428 -0.10324477
000260 7a a6 8b bc 0e 38 fd 3b fb 9b 86 bd 5b 53 84 bd
       -0.017047156 0.0077276295 -0.0657272 -0.06461211
000270 21 fe d0 bc f5 65 e0 3d df 34 f6 3d fe 57 7c bd
       -0.025511803 0.10956947 0.12021803 -0.061607353
000280 31 0e c7 bd 0b 0a cf bd 86 39 9a bd ab f2 9b 3d
       -0.09719504 -0.101093374 -0.07530503 0.076146446
000290 00 46 e3 3d 14 ca b3 3c 1e 35 c1 3d d5 ee 21 be
       0.11097336 0.021946944 0.094339594 -0.15813763
0002a0 e4 52 34 bd e3 61 06 3e 39 bf a4 bd f9 4f f5 bd
       -0.044024363 0.13123278 -0.08044285 -0.11978144
0002b0 e4 96 32 3c a8 3d a3 bd 69 81 50 3d 4b 41 32 3e
       0.010900233 -0.07970744 0.050904665 0.1740772
0002c0 e1 12 e8 bd 49 b4 97 3d 03 f6 5b 3c 79 0d 8c 3d
       -0.11331726 0.074074335 0.013425353 0.06838507
0002d0 07 59 04 bc 9f 68 6c bd ac fb b8 3d 49 7e af bd
       -0.008077866 -0.057716962 0.090323776 -0.08569009
0002e0 7e 85 c1 3d 60 26 98 bd f1 d6 8a bd bb 29 cc bd
       0.0944929 -0.074291945 -0.06779278 -0.09968897
0002f0 57 54 45 3b 20 c7 d3 bd 2b 3e c9 bd bf cd 8f bd
       0.0030110085 -0.103407145 -0.09826311 -0.07021665
000300 ab ee ca bd 8b cc cf 3d fb d0 25 bd c2 d3 0d 3e
       -0.099088036 0.10146435 -0.040482502 0.1385031
000310 1d 92 fd 3d 6c 9d 8e bd eb 1c 89 bd 53 28 0c 3e
       0.123813845 -0.069636196 -0.06694969 0.13687257
000320 c6 a4 8f bc 9d 16 8b bd 72 73 f4 bc 51 ac 59 bd
       -0.017534625 -0.067914225 -0.029840205 -0.05314285
000330 ee 4c 27 be fe 10 17 3d 01 04 6e bc f2 e8 fe 3b
       -0.1633794 0.03688144 -0.014527322 0.007779234
000340 ea 1b fd 3d 6c 6f 29 bd 10 66 ea bd 8d 68 e5 bb
       0.1235884 -0.041366026 -0.11445248 -0.007000989
000350 78 a7 ab 3d d0 73 68 bd 41 8f d0 bd 47 68 49 3d
       0.083815515 -0.056751072 -0.101835735 0.049171712
000360 3a be af 3b 0b 9c 16 3e 18 e8 e3 3c 9d e0 81 be
       0.005363253 0.14707963 0.027820632 -0.2536668
000370 da 52 3a 3d b5 fe 1c 3d aa 18 b1 3d eb a7 39 3e
       0.04548917 0.038328845 0.086472824 0.18130462
000380 77 dd a5 3d f8 a4 5f bc 2d a0 4b 3d 33 dd ad 3c
       0.08098882 -0.013650171 0.049713302 0.02122364
000390 72 69 8b bd c8 d1 d2 bc 8a ae 38 be b7 4e 07 be
       -0.068072215 -0.025734797 -0.18035331 -0.13213621
0003a0 7d 7e cd 3d f7 bb 18 3e 00 89 35 bd 79 3f 73 3d
       0.10033891 0.14915453 -0.044320107 0.059386704
0003b0 54 69 df bd ce 45 fb bd 5d a5 c0 bd 31 bb 80 3e
       -0.109087616 -0.122691736 -0.094065405 0.25142816
0003c0 b6 a4 85 bd 5b b0 c8 3d 5f af 2a bd a1 2b 58 bd
       -0.06525557 0.09799262 -0.041671153 -0.052775983
0003d0 df 0a 08 be fd ff 7e be d6 d3 d7 bd 9f 1a d6 bd
       -0.13285397 -0.2490234 -0.105384514 -0.10454296
0003e0 15 a4 2b 3d c4 28 96 3d ab e2 2a bc a5 b6 86 bd
       0.041904528 0.07331994 -0.010430018 -0.065778054
0003f0 71 f7 3f 3e 29 b1 f2 3d a0 26 98 3d 4d 14 69 bc
       0.18746735 0.11850197 0.07429242 -0.0142260315

bias_ih_l0 f4 [64]
000000 d3 b1 81 3c 1a b2 0b 3e ac a2 0e 3e 74 1e 50 3e
       0.015831864 0.13642159 0.13929242 0.20324117
000010 05 31 29 3e 5c 72 0f be 44 7d 23 be 0e b2 c0 3d
       0.16522606 -0.14008468 -0.15965754 0.09408961
000020 db ba 3e 3e 5a 33 26 be 3e b1 2a be 24 0b 0f 3e
       0.18625967 -0.16230527 -0.16669175 0.13969094
000030 4a 4f e2 3d 08 33 3c 3e ad ca ad bd 02 a8 4d be
       0.110502794 0.18378842 -0.08485923 -0.20083621
000040 f2 d7 32 3e 75 67 16 3d f7 ac 03 be 83 4d c3 3d
       0.17465189 0.036719758 -0.1285895 0.095362686
000050 c9 79 96 bd 6d d8 3e be f5 cb 2e 3e 92 95 8e bd
       -0.073474474 -0.18637247 0.17069991 -0.06962122
000060 6d b8 05 bd 94 26 17 3e 43 98 04 be db c9 4e be
       -0.032646585 0.1476081 -0.12948708 -0.20194189
000070 db 6b 1b be 6a 19 33 3e b2 26 ff bd 3b b7 26 3e
       -0.15177862 0.17490163 -0.124585524 0.16280834
000080 37 76 46 be 78 7d 94 bd cd 2e 57 bc 66 14 b9 3d
       -0.19381033 -0.07250494 -0.013133717 0.09037094
000090 1b ec a8 3c 19 ad 39 3e 6f 2e d5 3d b5 83 53 be
       0.020620396 0.18132438 0.10409247 -0.20655711
0000a0 94 6a d0 3b c2 c3 43 3e 3c 96 3e be b6 a4 b5 bd
       0.0063603614 0.19117644 -0.18611997 -0.08869307
0000b0 92 f5 88 3d ac 65 d7 3d b9 ac 53 3e be 75 3c 3e
       0.06687464 0.10517439 0.20671357 0.1840429
0000c0 89 ca f2 bc 0e 84 64 3e b9 21 56 be 44 f0 e0 bd
       -0.029637592 0.22316 -0.20911302 -0.10983327
0000d0 bd d9 03 bd 7b f0 46 bd d3 fd f7 bb 8a 62 11 3e
       -0.032190073 -0.048569184 -0.0075681 0.14197746
0000e0 fb c8 2e 3d b5 c2 10 be dd 9a 1e 3d b1 8c bb 3d
       0.04267214 -0.14136775 0.038721908 0.09157694
0000f0 e1 0d 62 3e a6 c6 81 3d ea 2b 3d bd b5 98 8f bc
       0.22075607 0.06336717 -0.046184458 -0.017528871

bias_hh_l0 f4 [64]
000000 96 98 bb bd 0b 18 47 3d df da cd bc e5 2c 7e 3e
       -0.09159963 0.048606914 -0.02512878 0.24821813
000010 84 5a 30 3e b0 90 1d be 35 b2 fc bc 25 b2 0d 3e
       0.17222029 -0.15387225 -0.030846694 0.13837488
000020 6e 85 23 3d a4 c7 83 bd db bf 28 be 8c af 20 3e
       0.03992217 -0.06434563 -0.16479437 0.15691966
000030 88 e7 a2 3d a9 e5 ed 3c 7c a4 f8 bd 54 19 77 bd
       0.07954317 0.029040175 -0.12140748 -0.06032689
000040 d9 01 2b 3e d1 30 4b 3e c2 15 56 3d 4b 02 1d bd
       0.16699924 0.1984284 0.052266844 -0.038332265
000050 97 ac 12 be 49 1c 13 bd 0e d3 e7 bc 28 bf fb bd
       -0.1432365 -0.035915647 -0.02829888 -0.122923195
000060 9c 72 2e bc 15 07 3c 3e c7 bc 7d bd 72 51 7a bd
       -0.010647442 0.18362077 -0.06194761 -0.06111283
000070 d3 03 4b be ce ab 00 3d 9d f9 f9 ba 61 5c 09 3e
       -0.19825678 0.031413846 -0.0019071583 0.13414146
000080 46 57 cb bd e2 7a 88 bd 45 f9 fe bd e3 18 2f 3e
       -0.099287555 -0.06664063 -0.12449888 0.17099337
000090 23 34 25 3e 89 cb 58 3c 81 d3 5a 3c 39 1f e5 bd
       0.1613317 0.01323212 0.0133560905 -0.11187596
0000a0 24 f1 4b 3e e3 b6 55 3d 07 31 35 be e8 66 2b be
       0.19916207 0.052176367 -0.17694484 -0.16738474
0000b0 9a 16 2d bd 80 69 cb bc 86 8c f5 3d cc d7 0d 3e
       -0.042257883 -0.02483058 0.11989693 0.13851851
0000c0 eb 82 e3 bd c9 d5 4b 3d 42 43 3e be 5b 5b 44 bd
       -0.11108955 0.04976443 -0.18580344 -0.047938686
0000d0 d6 5e 85 bd e1 ca df bd 2a 5c af 3d 37 61 cc 3d
       -0.06512229 -0.10927368 0.08562501 0.0997948
0000e0 ea d8 ad 3d 88 14 12 bd 24 80 3b be 84 c8 11 3e
       0.08488639 -0.03566411 -0.183106 0.14236647
0000f0 d0 9b 1e 3e 5e 3f e8 3c 4d e6 be bc 5b 13 57 3e
       0.15489125 0.028350528 -0.023303175 0.21003477

weight f4 [14, 64]
000000 c2 d1 45 3d 47 f9 10 3e d0 33 8c 3d e2 25 83 bc
       0.048295744 0.14157592 0.0684582 -0.016009275
000010 f2 e9 07 3e c8 1e f4 3c 02 a9 c4 bd 9f 44 dc bd
       0.13272837 0.029799834 -0.09602548 -0.10755276
000020 fa 82 69 3d 27 70 93 3d 00 a2 14 be 3a 69 cd 3d
       0.057009675 0.07199126 -0.14514923 0.10029836
000030 21 d6 8e bd 41 7c c3 3d 18 b3 fb bd b5 8a ce bd
       -0.069744356 0.09545184 -0.12290019 -0.1008505
000040 14 4b a5 3b a5 29 07 3e 12 96 e1 bc 1c 70 c2 bc
       0.0050443504 0.1319948 -0.02753738 -0.023735099
000050 1f a8 aa 3d 00 cc 23 be 7a aa 2d 3c d9 eb 91 3d
       0.08332848 -0.15995789 0.010599727 0.071250625
000060 59 6c 8c 3c bf c3 c4 bd d1 fe a4 3c 6c 8f f1 bc
       0.017141508 -0.09607648 0.020141037 -0.029487334
000070 22 f7 22 be c7 66 f6 3d 2c 4b 01 bd 4f ed a0 3a
       -0.15914586 0.12031322 -0.03156583 0.0012277755
000080 e6 97 73 bd 71 24 6c 3d f1 af 27 be 8b 76 14 3e
       -0.059471034 0.05765194 -0.1637571 0.14498346
000090 b5 aa c3 3d f9 78 93 3d f4 6f d0 bc 1e 1f 25 bc
       0.09554044 0.07200808 -0.025444008 -0.01007822
0000a0 e3 f6 12 3e d0 49 29 3d e8 05 f3 bd 12 7c 4b 3c
       0.14351992 0.04133016 -0.11866361 0.012419717
0000b0 67 e6 e0 3d e1 83 3f 3d e4 c3 d6 3d 44 bf 85 bd
       0.10981446 0.04675663 0.10486582 -0.06530622
0000c0 cd 55 0c be 26 07 20 3d 44 06 12 be 4d b3 be bd
       -0.13704605 0.039069317 -0.14260203 -0.09311543
0000d0 b2 4e d5 3c 61 66 2f bd 2b 26 19 bd 75 6c b3 3d
       0.026038501 -0.042822246 -0.037389915 0.08760921
0000e0 5c dc 7c 3d b2 89 af bc 67 8b 17 bb 9f 80 6f ba
       0.06173359 -0.021427963 -0.0023123862 -0.00091362925
0000f0 d7 ea 45 bd cd 62 03 3e 42 b0 8a 3d 7a cd a2 3d
       -0.048319664 0.12830658 0.067719 0.07949348
000100 c0 02 d6 3d c4 cf 50 3d 1e 73 2b 3d 8d 3d 0f bc
       0.10449743 0.05097939 0.04185783 -0.008742702
000110 dd 86 23 3d 9d 03 7d bd 1c 42 27 bd 09 88 0c bd
       0.039923538 -0.061771024 -0.04083453 -0.03430942
000120 af 76 1a bd f8 00 0a 3d 0c 7f 3a 3b 89 b3 06 bc
       -0.03771084 0.03369233 0.0028457073 -0.008221515
000130 6b bb fe bc fa fb a1 3d 01 e3 f1 bc f1 f4 7b bd
       -0.031095227 0.07909389 -0.02952719 -0.06151289
000140 19 58 6c 3d 5f 3b ad 3d 67 6e 47 3d 74 31 51 bd
       0.057701204 0.0845859 0.048689272 -0.051072553
000150 7f c7 28 3d 59 ce 3a 3d 76 de 92 3d f0 f5 94 3b
       0.04120588 0.045606945 0.07171337 0.0045459196
000160 f2 45 9c bb 5e cf aa bd 94 f1 bb 3d b4 93 53 bd
       -0.0047690803 -0.083403334 0.09176937 -0.051654533
000170 f9 23 91 bd 61 15 37 bd 9a 93 a7 bb dd f3 28 3d
       -0.07086939 -0.044698123 -0.005114031 0.04124819
000180 34 8b 7c bd 68 50 f7 bd 43 2d ac bd 81 93 d2 bc
       -0.061656192 -0.12075883 -0.084070705 -0.025705101
000190 92 2f a3 bd 6c b0 dc bc cf 80 0a 3d 24 51 ea bc
       -0.07968058 -0.026939593 0.033814248 -0.028603144
0001a0 8b 44 00 3d 15 e0 d9 3c 58 8c 89 bd e0 37 39 3d
       0.031315368 0.026596108 -0.067162216 0.045219302
0001b0 e7 fd 10 bd 42 1b 03 3e 26 cf a9 3d 02 2e 08 bd
       -0.03539839 0.12803367 0.082914636 -0.033247
0001c0 fa 8f 8d 3d 94 34 bd 3d 5d 57 f8 bd f6 78 91 3d
       0.06912227 0.09238544 -0.12126038 0.071031496
0001d0 d5 c7 a7 3d 99 05 bb bc 66 46 ba bc d3 89 eb 3b
       0.08192412 -0.022829818 -0.022738647 0.007188061
0001e0 b8 f4 be 3d 9e 63 a0 bd 78 db fe bc 3b e7 62 3d
       0.0932402 -0.078315005 -0.03111051 0.0553963
0001f0 b4 10 d6 bc 98 72 9c bd 68 bf 8d 3b 5d 3d 4a 3d
       -0.026131012 -0.076390445 0.004325796 0.049374927
000200 e6 4e d6 ba f6 16 8d bd d7 d1 13 bd ad 70 25 3d
       -0.0016350418 -0.06889145 -0.03608879 0.04039066
000210 82 96 16 3d 62 01 eb bd 3c d1 93 bd fa 9b fa 3b
       0.03676463 -0.11474873 -0.07217643 0.0076479884
000220 2a 3e dc bc 5e 24 59 bd cc e7 df 3c c7 24 02 3e
       -0.02688511 -0.053013198 0.027332209 0.12709342
000230 c5 5f cb 3a 98 16 a9 3d ea 2d 8d bd e6 df b2 bd
       0.0015516212 0.082562625 -0.06893523 -0.087341115
000240 62 66 18 3d e2 eb d4 ba 6d 0c a3 bd 71 6a 22 bc
       0.037207015 -0.0016244615 -0.079613544 -0.009913073
000250 fd bb aa 3c 6e 3f 42 3d 85 28 62 3d bf c9 b3 3d
       0.020841593 0.047423773 0.055214424 0.087787144
000260 64 66 99 3d c1 f5 b2 bc ed 56 c3 bd 2d 02 d3 bc
       0.074902326 -0.0218457 -0.09538064 -0.025757873
000270 ab 85 a0 bd ac a0 af 3d 20 a5 73 bd 10 70 23 3d
       -0.07837995 0.085755676 -0.059483647 0.039901793
000280 ef 75 46 bd c0 10 cf 3d c1 36 c3 3b 91 1f 41 3d
       -0.048452314 0.10110617 0.005957455 0.047149245
000290 ef ea f0 3d 26 a6 92 3d 13 80 89 3c c3 57 e9 bc
       0.1176356 0.071605965 0.016784703 -0.02848423
0002a0 98 36 62 3c cb db b0 bd 9f 6b f6 bd ee 50 10 bd
       0.0138069615 -0.08635672 -0.12032246 -0.03523343
0002b0 1b 74 fb 3c 9e ec d4 3d da 3d 95 3d c0 a6 c5 bc
       0.030695012 0.10396694 0.07287188 -0.024127364
0002c0 6f 2e 9a 3d 46 aa 7b bd fb f2 d2 bd db a8 c2 3d
       0.07528388 -0.061441682 -0.10300251 0.09504863
0002d0 b0 30 c9 3c 2c d2 33 bd c1 37 ec 3d 8f 76 c5 bd
       0.024559349 -0.043901607 0.11534072 -0.09641754
0002e0 9b 35 b7 3d ad ff bc bb 96 e2 37 bd 86 20 f6 3d
       0.08945771 -0.0057677836 -0.044893824 0.12017922
0002f0 9f 9b 23 3d 96 ca b6 3d af e8 e7 3b f7 7c e8 3c
       0.039943334 0.08925359 0.0070772986 0.0283799
000300 4a 9b 1e 3b 40 9c 91 3c 13 02 ad 3d 0e 02 71 bd
       0.0024201446 0.017774701 0.08447661 -0.05883985
000310 62 e2 c1 bc 19 4c 51 bd 70 0f 82 3b 6f 2f b8 3b
       -0.023667518 -0.051097963 0.0039691254 0.005620889
000320 1f a7 4e 3d 47 9b 04 3c b6 2f c3 3d 30 df 92 bd
       0.050452348 0.008093662 0.095305845 -0.07171476
000330 d2 cb 40 bb 46 a0 44 bd ef ad 09 bc 66 c7 c1 bc
       -0.0029418361 -0.04800441 -0.008403285 -0.02365465
000340 bf 08 2e 3b 60 a8 aa bd 87 8f 4c 3d 14 c7 8b bd
       0.0026555506 -0.08332896 0.049941566 -0.068250805
000350 be 2a 63 3c 8a c9 a0 bd 9b 14 0f bd ff e9 90 3d
       0.013865171 -0.078509405 -0.03493176 0.07075881
000360 6f c5 d1 3d f5 b3 29 3d ba b8 f1 3d 33 eb 2d 3d
       0.102427356 0.041431386 0.11802812 0.04246063
000370 57 15 6a 3c 5f 34 35 3c 9f 42 88 bd 25 29 c4 3d
       0.014287314 0.0110598495 -0.06653332 0.0957816
000380 44 2b 61 bd 2d cd 40 3d 18 eb b8 3d da cc 8b bd
       -0.054972902 0.04707067 0.090292156 -0.06826182
000390 c3 44 17 bd 3f 75 f5 3b d0 18 0f bd 43 e1 d9 bd
       -0.03693081 0.0074907835 -0.034935772 -0.106386684
0003a0 12 79 af 3c f8 a6 cd 3d df 85 0c 3d 92 f6 c0 bb
       0.021420036 0.100416124 0.034307357 -0.0058887685
0003b0 83 58 94 bd fb 9e d2 bb c2 bb ec 3c 45 99 06 3d
       -0.07243445 -0.0064276434 0.028898124 0.032861013
0003c0 d2 3e 1b bd b8 89 72 bd 2c 51 0f bd 1f cc ad 3d
       -0.037901707 -0.05921337 -0.03498952 0.08486199
0003d0 a6 7d f7 bc a7 f3 d5 bc 81 2d 94 3d 12 c0 97 bd
       -0.030211281 -0.026117159 0.07235242 -0.074096814
0003e0 a2 e5 a0 3d a9 92 e5 3c 01 5a ae bd 88 73 38 3d
       0.07856299 0.028024035 -0.08513261 0.045032054
0003f0 c3 26 d0 3a ce db f1 bc 9d f8 97 3c 6d 20 fa 3d
       0.0015880693 -0.029523756 0.018551165 0.12213216

bias f4 [14]
000000 94 4c 0e 3e d2 3e f0 3d 51 2f 86 3b 98 8a 77 3c
       0.138964 0.11730732 0.004094996 0.015108727
000010 91 0a db 3d 2b 2c 0c be c3 26 98 3d 9d fb 08 3d
       0.10695375 -0.13688724 0.07429268 0.033443082
000020 3f e9 1e be a0 1a 1e bc 54 5a e6 bd 58 0d b3 bd
       -0.15518664 -0.009649903 -0.112476975 -0.087427795
000030 c9 b4 d0 bd d3 4d 2c be
       -0.10190732 -0.16826563
