t2_lstm_word2vec.pt (torch, 379362 bytes, 6 tensors)

weight_ih_l0 f4 [256, 300]
000000 07 40 af bc 2d 51 b4 bd ed 52 3e 3d cf 34 86 3d
       -0.021392835 -0.088045456 0.046465803 0.06553041
000010 7b fc c5 3d 61 b5 08 3d 9d 82 f1 bd 7f a8 06 bd
       0.096672975 0.0333761 -0.11792491 -0.032875534
000020 57 cd d4 bd fb 42 d4 3d e7 de 8d 3d 7b e6 ba bd
       -0.10390728 0.10364338 0.06927281 -0.09125992
000030 d3 57 05 be 73 cf 45 bd 8c cd 9d 3d 3c 14 6a bc
       -0.13021784 -0.048293542 0.077052206 -0.014287051
000040 22 8f 61 bd 9d c6 dd bc 20 f2 29 3d fc a6 d9 bc
       -0.055068143 -0.027072245 0.041490674 -0.026568882
000050 1f cc a9 3d c1 7a f9 ba 3a 8a e5 3d 6b ab d7 bc
       0.08290886 -0.0019033776 0.11208005 -0.026326856
000060 c3 52 49 bc bb f4 ed 3d 1c 61 be bd 2d 18 78 bd
       -0.012287798 0.11618944 -0.09295866 -0.06056993
000070 a4 6a 9f bd c4 cd ad 3c d0 ab 64 3d ea 8c fa bd
       -0.07784012 0.02121628 0.055827916 -0.122339085
000080 f1 d1 32 3d 27 9e 69 3c ef e2 16 be 2e 0a 11 3d
       0.043657247 0.014258898 -0.14735006 0.0354101
000090 aa 80 93 bd 74 65 c2 bd 59 e3 65 3d 7b 30 3e bd
       -0.07202275 -0.09492007 0.05612502 -0.046432953
0000a0 60 60 29 bc 24 c0 73 bd ca ff 64 3d 7e 25 d6 bc
       -0.010337919 -0.05950941 0.055908002 -0.026140925
0000b0 b4 ce e6 3d ee 31 a6 3a ea 8b 4f 3c 35 02 47 bd
       0.11269894 0.0012679675 0.012667635 -0.04858609
0000c0 be af ca bd f5 8c 8b bd d5 7f 5d bd 15 09 e9 bd
       -0.098968014 -0.06813995 -0.05407699 -0.113786854
0000d0 8a d3 90 3d 47 18 3e bd e0 c3 4f 3b b5 53 5a bc
       0.07071598 -0.04640987 0.0031702444 -0.013325621
0000e0 16 1f c9 bd 2e 93 0b bc ff e6 fb 3c 5c 43 a0 bd
       -0.09820382 -0.008518977 0.030749796 -0.07825348
0000f0 22 34 d7 3d 6b 24 78 bd f2 71 c9 bd d8 22 07 3d
       0.105079904 -0.060581606 -0.098361865 0.032992214
000100 c7 97 0d 3d f7 56 05 bc 8f 8d 0e bd bd b7 7d 3d
       0.034568574 -0.00813841 -0.03480297 0.061942805
000110 ab 0f 44 bd db 4a b5 bd 2b 03 b0 3d 49 8f 68 3c
       -0.047866505 -0.08852168 0.08594354 0.014194318
000120 84 2c e6 3c 67 64 c7 bd 4c d4 6c 3d b1 f0 5f bc
       0.028097399 -0.09735947 0.05781965 -0.013668225
000130 57 fa 18 bc ed b3 e6 3c 6a 1f 86 3d b9 b2 17 bd
       -0.009337029 0.028161967 0.065489605 -0.037035678
000140 33 c1 a9 bb a6 65 d4 bc 08 42 c5 3d 30 4d 05 bd
       -0.005180502 -0.025927376 0.09631735 -0.032544315
000150 2c ac 13 bd 27 2b 91 bc 3d ac 95 3b fa 41 69 bd
       -0.036052868 -0.017720772 0.0045676515 -0.056947686
000160 e9 94 82 bd 9d 57 f3 bd 4f ae b4 3d fd 7c 93 bd
       -0.063760586 -0.11881945 0.08822309 -0.07201574
000170 46 3b 35 bd 88 b2 d6 3d f9 97 39 3d d2 37 10 3c
       -0.04424598 0.10483271 0.045310948 0.008802371
000180 d0 d7 ed bd 67 2e 94 bc 11 77 cf 3d 96 3d 38 3d
       -0.116134286 -0.018088533 0.10130132 0.044980608
000190 25 9a 69 bd 26 f5 c1 bd 6a b7 a6 3d be ec 0e 3d
       -0.05703177 -0.094705865 0.08140452 0.034893744
0001a0 71 cf a2 3d 5b cc e7 3d 1b 32 cc bd ec 01 08 3e
       0.079497226 0.113182746 -0.09970494 0.13281983
0001b0 af 11 18 bd 65 ee 90 3d fb 05 b8 3b e2 c5 7e 3d
       -0.03712624 0.0707672 0.0056159473 0.062200435
0001c0 f6 2a e6 bd 44 bb cd bd 4c 5d d1 bc 18 cb f8 3d
       -0.11238663 -0.10045484 -0.025557183 0.12148112
0001d0 d1 9b c2 3b 05 ca ee 3d 48 13 93 3d ca 3f b9 3d
       0.005938985 0.11659626 0.07181412 0.0904537
0001e0 41 a4 dc 3d e1 61 b6 3d a4 cd 23 3d ca 11 4e 3d
       0.107735164 0.08905388 0.039991036 0.050309934
0001f0 f1 08 43 3d 56 8f a8 3d d1 fe 37 3d df 5f 99 bd
       0.04761595 0.08230464 0.044920746 -0.07488989
000200 95 62 b2 3d 51 2b 1d bc 09 c1 96 bd 07 fa 58 3d
       0.08710209 -0.009592847 -0.07361037 0.05297282
000210 6e 7d 41 bd d4 69 2b bd 9e 8d 10 3c 69 49 21 3d
       -0.04723876 -0.041848972 0.008822827 0.03937665
000220 91 72 43 3d 6c 42 b0 bd 6d fc 1e 3d d8 37 34 3d
       0.04771668 -0.08606419 0.03881495 0.04399857
000230 11 00 bf 3d 2b eb 08 3e 76 c5 39 3c 6b dc c5 3d
       0.093261845 0.1337096 0.011338582 0.09661182
000240 90 2a 84 3c 9e 2f d4 3d 98 d4 dd 3d a6 90 10 bd
       0.016133577 0.10360645 0.10831565 -0.035294197
000250 ea ad 63 bc aa 6e a9 3d 00 d5 78 3d e9 0f fe bd
       -0.013896445 0.082730606 0.060750008 -0.12405378
000260 1f b5 05 3d 17 20 9b 3c 9d 91 dd 3d 0e f5 c1 bd
       0.032643434 0.0189362 0.10818789 -0.094705686
000270 fd 8a b8 3d a6 9c 6d 3d b7 a6 d7 3d 74 4d d7 3d
       0.09010885 0.05801072 0.10529845 0.1051282
000280 15 e8 b7 3d e6 c3 13 bd fe 8b 56 3d b6 03 13 3d
       0.08979813 -0.036075495 0.0523796 0.03589221
000290 52 45 ef bd f1 ea be 3d aa 07 25 bc 4d 2d 0f be
       -0.11683144 0.09322155 -0.010072628 -0.13982125
0002a0 c4 b2 51 3d ca 32 af bd 4b c2 a3 bc 36 ab 60 3d
       0.051195875 -0.08554609 -0.019990107 0.05485078
0002b0 8a 9a 3c 3d 5d 26 66 bc c4 fd d6 3b 06 0c 87 bb
       0.046045817 -0.014047232 0.006561013 -0.0041213064
0002c0 b9 79 d4 bc b6 57 c7 bb f5 de b3 bc 54 55 4d bc
       -0.025936948 -0.006083454 -0.0219569 -0.012532551
0002d0 21 61 6e bd 5c 63 64 bd 94 c5 bc 3c 76 d2 3b bb
       -0.058198098 -0.05575882 0.023043431 -0.002865938
0002e0 9b 57 04 3e 3b 1f a6 3d 06 66 c8 3c 3e d3 9a 3d
       0.12924044 0.081114255 0.024462711 0.075598225
0002f0 2b 13 2f 3b 79 82 34 3d 86 ea 44 3d 99 c0 dc 3d
       0.0026714306 0.04406974 0.04807522 0.107789226
000300 b2 86 31 bd 89 cb 40 bd 41 bf 86 3d bb 4e 01 3e
       -0.043341346 -0.047069106 0.065794475 0.1262769
000310 43 fc 06 bd 68 dc d9 3d 36 bd 14 3c b5 ae f7 3d
       -0.03295542 0.10637742 0.0090783145 0.120938696
000320 82 ee 35 3d 92 29 c9 bd b0 25 c5 bb 79 43 f9 bd
       0.044416912 -0.09822382 -0.0060164556 -0.121710725
000330 42 b2 44 bd c3 ec 9f bd 42 9d d9 bd e2 46 85 3d
       -0.048021562 -0.078088306 -0.10625698 0.065076604
000340 3c da 8a 3d 6e b0 65 3d ae b6 e6 3d 23 78 c8 3d
       0.06779906 0.05607646 0.11265312 0.09788539
000350 df 73 74 3d 1a d2 d0 bd 4e 18 f3 3c c9 d1 b5 bd
       0.059680816 -0.10196324 0.029674675 -0.08877904
000360 df 02 dc bd f0 4a 31 3d 10 7f c7 bd f6 70 3c bd
       -0.10742735 0.043284357 -0.09741032 -0.046006165
000370 98 30 2d bc 73 69 24 3d 25 2e 18 bd b8 82 9d bd
       -0.010570668 0.040139627 -0.03715338 -0.07690948
000380 cd 6c b7 3d d0 ec 5f 3d 4a 72 b2 3d 84 c2 9c bd
       0.08956299 0.0546692 0.08713205 -0.076542884
000390 7a 91 6a bd ea 6b 61 3d 30 a5 be 3d 1a 5c 90 3d
       -0.057267644 0.055034555 0.09308851 0.07048817
0003a0 5c 62 20 3d b0 b0 30 3d e6 70 9f 3c 1e 27 59 bd
       0.039156303 0.043137252 0.019463014 -0.05301582
0003b0 e3 99 de 3c 55 ff e7 3d 8a ca 0e be 5f 1c bd bd
       0.027172988 0.113279976 -0.1394445 -0.09233927
0003c0 00 d3 dd ba 33 84 94 3c 43 04 1d bb bf 32 f2 3d
       -0.0016923845 0.018129444 -0.002395884 0.11826085
0003d0 c2 a5 e0 3d 3b ad c0 bd 3c 51 f6 3c 87 eb 8e bb
       0.10969116 -0.09408041 0.030068032 -0.004361573
0003e0 34 d2 2f 3d 72 ee 53 bd a7 65 98 3d 83 44 35 bd
       0.042925075 -0.05174107 0.07441264 -0.04425479
0003f0 4d 8c a1 3d 3c a3 0e 3d 3b e0 60 bc 63 cd cb bd
       0.078880884 0.03482364 -0.013725336 -0.09951284

weight_hh_l0 f4 [256, 64]
000000 cb 2f fb 3d 81 c5 c5 3c 40 aa a9 3d 4a ee 41 bd
       0.12264975 0.024142029 0.08284426 -0.04734639
000010 b5 66 df 3c 82 ff d3 3d 70 30 97 bc ee 50 9c 3c
       0.027270654 0.103514686 -0.018455714 0.019081559
000020 79 52 ce 3d 5f 4d 9e b9 70 d6 0e 3c a0 24 26 3b
       0.10074324 -0.00030193754 0.008718118 0.002535142
000030 7d ef ff bd 04 3c 33 3c 6f c4 92 bd fd 0b a9 bd
       -0.12496851 0.010939602 -0.07166373 -0.0825424
000040 b6 25 a1 bc 52 65 67 bd c2 d1 6f 3d f1 e2 a5 bd
       -0.019671302 -0.05649311 0.05854965 -0.08099926
000050 17 fb 1c 3d 71 31 16 3d 6f 51 33 3d c7 84 89 3d
       0.038325395 0.036668245 0.043778833 0.067147784
000060 b9 2d ab 3d ab a6 6b bd b5 1a 1f 3e e8 18 07 3c
       0.0835833 -0.057531994 0.15537532 0.008245684
000070 20 f3 e6 3c b0 f7 87 bd 9c d8 ab bc b5 9f 2a be
       0.028192103 -0.066390395 -0.02097731 -0.16662486
000080 8c 03 e5 3d 02 2a c8 3d 8c 15 9f 3d b8 20 5f 3d
       0.11182317 0.09773637 0.077677816 0.054474562
000090 98 30 cd bd 74 d5 ba bd 5f e7 98 3d f7 84 9f bd
       -0.10019034 -0.09122744 0.074660055 -0.07789033
0000a0 d3 ca 62 bd 13 53 08 be 9c 69 f6 3c 91 9e 5f bd
       -0.05536921 -0.1331294 0.030079655 -0.05459458
0000b0 31 84 ef 3d 5b 64 50 bd 4e 39 f3 3d 3a 74 07 3e
       0.116951354 -0.050876956 0.118761644 0.1322793
0000c0 3f da 8b bc fb f6 3f 3d 82 3a 39 3d 02 e0 51 3c
       -0.017071841 0.0468664 0.045221813 0.012809755
0000d0 10 75 15 be f6 90 cc bc 43 de 91 3d 75 d9 7c 3d
       -0.14595437 -0.024971467 0.07122471 0.06173082
0000e0 7c 1b 10 3e 23 1b da 3d 4a 48 a5 bd 0b 2d b1 3b
       0.14072984 0.10649707 -0.08070429 0.005406981
0000f0 12 c6 98 bd 3b 05 b5 3d dd fb bf 3d dd 50 f6 3c
       -0.07459654 0.08838888 0.09374211 0.030067855
000100 e2 aa b9 3d cf 4c fc 3c f6 21 09 3e 55 43 0a bd
       0.090657964 0.030798344 0.13391861 -0.03375562
000110 a8 33 b3 3c b5 9c cd 3d 7b 29 57 bc 56 25 dd bd
       0.021875218 0.10039655 -0.013132448 -0.10798137
000120 01 ae 1e bd 5e 87 b9 3d 7a 00 0d be f2 b6 8a bd
       -0.03874016 0.09059022 -0.13769713 -0.06773175
000130 92 2a 0a bd 61 19 15 be 1b 8c 59 3d 82 18 77 3d
       -0.033732004 -0.14560463 0.05311213 0.060326107
000140 9e f3 84 3d a5 ca ce bd 76 21 53 bd e7 1e 0c 3d
       0.06491779 -0.10097245 -0.051545583 0.03420916
000150 a0 a4 a9 3c 7b 9c a5 3c 62 45 c4 3d 82 9b 1b 3d
       0.020708382 0.020216217 0.09583546 0.0379901
000160 51 83 b8 3c 1e 16 10 3c 5d 52 4d bc 36 cf cf 3d
       0.022523554 0.008794336 -0.012531844 0.10146944
000170 36 cb 46 bb 14 18 0f 3c e6 9f 12 bd f6 61 8d 3d
       -0.0030333526 0.008733768 -0.035797022 0.0690345
000180 8a 98 3f 3d 6f 26 a1 bd f9 06 d3 3d 19 a8 d7 3c
       0.046776332 -0.07868659 0.10304064 0.026325272
000190 55 bd 39 bd 3c e4 c2 3b 91 fc ab 3d 2d 82 53 3c
       -0.045346577 0.005947618 0.083977826 0.012909454
0001a0 9a aa 66 bd db 29 2e 3c cc 57 b7 3d e0 7f 8d bd
       -0.056315042 0.010630096 0.08952293 -0.06909156
0001b0 3c c1 36 3d 49 d5 d3 3c e0 75 ab 3d 2b 8f d8 3d
       0.044617876 0.025858538 0.08372092 0.10574182
0001c0 1d d8 c2 bc d7 7d b1 3d 14 76 3d bd 9c 6e db 3d
       -0.023784691 0.0866658 -0.046255186 0.107144564
0001d0 fe 54 be bd 2d e5 39 3c d6 08 2e 3d 57 7c 26 bd
       -0.09293555 0.011346144 0.042488895 -0.040645923
0001e0 7a ba 2d 3d 0f cd d3 bc 20 3f b4 bb f5 05 46 3d
       0.042414166 -0.025854615 -0.005500689 0.048345525
0001f0 26 cd f4 3d a8 1e 25 3d 5f 95 c6 bd 36 88 94 bd
       0.119531915 0.04031244 -0.09696459 -0.07252543
000200 b4 2e e2 3d 77 33 9f bd 36 0b c0 bc 6e e8 af bc
       0.11044064 -0.07773488 -0.023442846 -0.021473136
000210 54 6d a5 bc 1c f7 71 bd db af 4c bd 69 ab 01 bd
       -0.020193733 -0.059073552 -0.049972396 -0.03165761
000220 4a 93 ff 3d 5a 22 05 bd 0e 9f e1 3b b8 1b bc 3d
       0.12479265 -0.032503463 0.006885416 0.091849744
000230 6e 94 37 bc 4a 8a 89 3d 2e 0f b5 3d c2 7d da bd
       -0.011204822 0.0671583 0.08840786 -0.10668518
000240 da f0 20 3d 2e af 8e 3d a3 56 ef bc b2 f3 0a be
       0.039292194 0.069670066 -0.029216116 -0.13569525
000250 5c c4 52 3d 5c e6 e1 3d 39 80 df bd 1d 2a 3c bd
       0.051456794 0.11030266 -0.109131284 -0.0459386
000260 7d 9b b8 3d 35 da a2 bd 5d fa 07 3c 05 2e 09 3d
       0.09014032 -0.07951776 0.008299437 0.033491153
000270 9c 10 c7 3d 48 98 1e be e6 60 9d bd 68 fe c8 bd
       0.09719965 -0.15487778 -0.076844975 -0.09814149
000280 93 8d 88 bc 90 f6 12 3e f9 0c dc 3d 54 e2 ac bd
       -0.01666907 0.14351869 0.10744662 -0.08441606
000290 1f d4 09 bd db 20 16 bb 93 34 55 bd 2a 20 09 3e
       -0.03364956 -0.0022907767 -0.05205209 0.13391176
0002a0 d3 84 94 bc d5 75 98 3d 44 8b 91 3d f4 a0 ce bc
       -0.018129742 0.0744435 0.07106641 -0.025223233
0002b0 a4 93 75 bd 08 8f 35 3d fc 49 1c 3e 71 a5 1f 3e
       -0.059955254 0.04432586 0.15262598 0.15590455
0002c0 7d 8e 18 3d f6 b4 9d 3d c4 21 83 3d c7 51 c7 3d
       0.037245262 0.07700531 0.06402925 0.09732395
0002d0 d7 bb 64 bd 6f 51 cf bd 67 d3 29 bd 4a ee 24 bd
       -0.0558432 -0.10122954 -0.041461375 -0.040266313
0002e0 ab 02 cf 3d 6a c9 35 bd 07 4d bd bd 80 62 28 bd
       0.10107931 -0.044381537 -0.092432074 -0.041109562
0002f0 c0 1c 61 bd 7b 42 90 3c f0 02 66 bd 6c a4 0a bd
       -0.05495906 0.017609825 -0.056155145 -0.03384821
000300 dc 6d e7 3d 9f a6 9e 3d f6 0a b0 3b ed fb e6 3d
       0.11300251 0.07746624 0.0053724004 0.1127852
000310 24 9f 85 bd bc 5a 88 3d b8 b7 d6 3d b2 31 2d bd
       -0.06524494 0.06657931 0.1048426 -0.04228372
000320 c7 3c 2c bd 75 1d cf ba a5 c9 d9 3d 8a 16 9f bd
       -0.04205015 -0.0015801626 0.10634164 -0.07767971
000330 1d 51 d7 3c 4c ad 01 3e 13 27 91 3d 85 d8 87 3d
       0.026283795 0.12663764 0.07087531 0.06633095
000340 c4 54 b6 bd 43 8a f0 3c 76 a3 51 3b 06 01 89 3b
       -0.089028865 0.029362803 0.00319883 0.00418103
000350 16 49 79 3d e8 54 7b 3d 00 8c 81 bd 51 42 33 3d
       0.060860716 0.06136027 -0.06325531 0.043764416
000360 1b bd 90 bc 98 52 a7 bd 7e 26 81 bc d6 63 6a 3c
       -0.017668298 -0.081700504 -0.015765425 0.014306029
000370 a8 36 7c 3b 09 71 4f 3d a5 ad 28 bd 1b 38 24 bd
       0.0038484726 0.050644908 -0.041181225 -0.04009257
000380 9e aa e5 3d 0c 34 ba 3c b2 1a 66 bd c1 b0 4b bd
       0.11214183 0.022729896 -0.056177802 -0.049729113
000390 07 d0 b0 3c 16 d4 e4 bd 1f 2f d2 bd 34 a9 bb 3c
       0.02158357 -0.11173265 -0.10262894 0.02290783
0003a0 35 0a 7d 3d 5e 9e a6 3d 65 6d fa 3d 67 3f e7 bd
       0.061777312 0.08135675 0.122278966 -0.1129139
0003b0 5a dc f5 bd 19 37 a6 3d aa a0 83 3c 2a 84 b6 3d
       -0.12004919 0.08115978 0.016067822 0.08911927
0003c0 ec a4 10 bc d0 cb 84 bc 5e f7 8a 3d 88 2c 88 bd
       -0.008828383 -0.016210467 0.06785463 -0.06649119
0003d0 57 ab f9 3c 37 cb c5 bd b1 09 23 bc 56 ab bd bd
       0.030477209 -0.09657901 -0.009951041 -0.09261195
0003e0 8d b3 cb 3d 85 57 a8 3c ed a4 8f 3d e3 bd da 3d
       0.09946356 0.020549545 0.07013879 0.10680749
0003f0 ac 85 d1 3d d8 16 fe bd b1 a6 d3 3d e0 e3 82 3d
       0.10230574 -0.12406701 0.10334528 0.0639112

bias_ih_l0 f4 [256]
000000 44 e4 17 3e c0 ce 0b 3e cc d9 3b 3d 6f bd 84 ba
       0.1483317 0.13653088 0.045862004 -0.0010127256
000010 1f 02 b6 bd 45 5e 6c bd 8b 39 b5 bd 97 ee 23 3d
       -0.08887123 -0.05770709 -0.08848866 0.04002246
000020 02 aa 0e 3e 69 1f 84 3d 79 ef 31 3d e6 45 b1 3d
       0.1393204 0.064513035 0.04344127 0.0865591
000030 c8 8e 94 bd cd c4 c2 3b 70 6b a8 bc c5 32 8d 3d
       -0.07253796 0.0059438706 -0.020559043 0.06894449
000040 85 9e 0a 3d be b4 79 bc 98 3c e6 bc 8b 9d 98 3d
       0.033842582 -0.015240846 -0.028105065 0.07451924
000050 a3 8e 8d 3b ea 91 ae bd 29 48 9e bd 6f 23 03 3e
       0.004319982 -0.08523925 -0.07728607 0.12806486
000060 d9 df e3 3d 0a 4a 93 bd c8 15 ea 3d c5 38 07 3d
       0.1112668 -0.07191856 0.11429936 0.033013124
000070 fa 30 a5 3d cd b0 79 3d 2d 5d fc bc ca f5 a1 3d
       0.08065982 0.060959626 -0.030806148 0.07908209
000080 7f 83 f0 3b b5 b4 8e bd 51 97 fc bd 0d d9 91 bd
       0.0073398943 -0.06968061 -0.12333549 -0.07121477
000090 7e 60 3c bd 1d 64 6c bd e2 58 f7 3d c5 ed 37 3d
       -0.04599046 -0.057712663 0.120775 0.04490449
0000a0 9a c1 16 3e d6 6c c3 3c 45 62 ba 3d 37 73 f3 bc
       0.1472229 0.023855608 0.09100775 -0.029718025
0000b0 93 65 f6 3b c6 7e 96 3c 5f 7b fd 3d 72 92 a1 3d
       0.007519433 0.018370997 0.12377047 0.0788926
0000c0 ca 94 8d bd f9 d3 06 3d 77 48 01 3e 61 e0 63 3d
       -0.06913145 0.032916997 0.126253 0.055633906
0000d0 30 13 73 3c 06 71 44 3d 29 77 0f be c4 e0 c6 3c
       0.014836118 0.04795935 -0.140103 0.024277098
0000e0 e6 93 27 3e d9 cc 11 bd d2 7e aa bd 11 03 1d 3c
       0.16365013 -0.03559575 -0.0832497 0.009583251
0000f0 14 21 fe 3d 13 d0 20 3e 9e 58 60 bd 2a a2 2d 3b
       0.12408653 0.15704374 -0.054772012 0.0026494362
000100 a0 61 38 bb 2c df ae bd f4 4d bc 3d cf 47 b3 bd
       -0.002813436 -0.085386604 0.09194556 -0.08753931
000110 73 34 de bd 4e 1b 00 bd 28 a5 2d 3d a2 e2 5e bd
       -0.10849848 -0.03127604 0.042393833 -0.054415353
000120 f7 1f 69 bd 91 3c c4 3d 69 fb a0 bd 1e 67 de 3d
       -0.05691525 0.095818646 -0.07860453 0.10859512
000130 e7 24 07 bc a0 e4 1c 3e de 6b d6 bd f9 3c da 3d
       -0.008248544 0.15321589 -0.10469793 0.10656161
000140 0c 8b 1d bc b1 08 4c bc 6b 1b 34 bd ae 2c 0c 3e
       -0.009615671 -0.012453244 -0.04397146 0.13688919
000150 f5 20 fa 3c 1b f3 ba 3d 5d a5 40 bd b6 ae e2 bc
       0.030533293 0.091284 -0.047032703 -0.0276712
000160 75 b6 72 3d a3 da 94 bd 31 f8 af 3d b4 35 14 3e
       0.059256036 -0.07268264 0.08592261 0.14473611
000170 24 2c bb 3d 7c 05 aa 3d ea 6f 0b bd e8 ce f3 3d
       0.091392785 0.08301827 -0.034042276 0.119046986
000180 f0 66 07 3e 83 38 63 3d 2c 61 a6 3d 25 4c 1c 3e
       0.13222861 0.055473816 0.08124003 0.15263422
000190 40 7d ef 3d d0 0b 9e 3b 24 f7 ce bd d3 63 a3 3d
       0.116938114 0.0048231855 -0.10105732 0.07978024
0001a0 2e 46 bf 3b 1f d1 d8 3c 46 01 f8 bc 3a fd a0 bc
       0.0058372235 0.026466904 -0.030274045 -0.019651998
0001b0 ec b7 27 3d 9f 36 32 3c 97 5e 00 3e 19 ff c1 bd
       0.040946886 0.0108772805 0.12536083 -0.09472484
0001c0 2e 1d 93 bd 76 2b 80 3d 77 6c 00 3e 02 c0 43 bd
       -0.071833 0.062582895 0.12541376 -0.047790535
0001d0 2e 40 19 3c 07 04 76 bd 17 fe 19 3c 3a ba 91 3d
       0.009353681 -0.060062435 0.009398959 0.07115598
0001e0 30 67 14 3e 76 b4 f3 bd 78 5a b0 3d 44 cf 3b bb
       0.14492488 -0.118996546 0.086110055 -0.0028657475
0001f0 95 3f fa 3c 8a d1 9f bd 7c 24 79 bd 8e bf 5a bd
       0.030547896 -0.07803638 -0.06082581 -0.053405337
000200 3c 4c 97 3d 4d 16 76 bc aa 01 e4 bc 57 51 ad bd
       0.073875874 -0.015019965 -0.027832825 -0.0846278
000210 29 82 e7 3c c5 1b c9 3b ca 7b 4f 3d b0 ad 00 be
       0.028260307 0.0061373436 0.050655164 -0.12566257
000220 77 bd 97 3d ff 08 b6 3d 21 1a e1 bd e5 ef e5 3d
       0.074091844 0.088884346 -0.10991312 0.11227397
000230 5c c0 61 bd a2 6e 10 be 60 52 84 3d 1b f4 20 be
       -0.05511509 -0.14104703 0.06461024 -0.15718119
000240 52 ae b2 bd a0 54 0c be 6c f2 f8 3d 1c 50 9c bd
       -0.08724655 -0.13704157 0.12155613 -0.07632467
000250 2e 8e e5 3b 39 6b c1 3d 05 e9 1c be 87 b7 09 3e
       0.0070054745 0.09444279 -0.15323265 0.13448916
000260 9a 3b 24 3e 0e 04 06 3e 6f bc ca 3d fd 8b 83 3d
       0.16038361 0.13087484 0.09899222 0.06423185
000270 2a 0e 1a 3e 32 54 13 be ca 74 84 3d 06 b0 8a bd
       0.15044466 -0.14387587 0.06467588 -0.06771855
000280 01 3c 80 3d 3d a7 ec bc 8b e8 6b bd 9a a1 b3 3d
       0.06261445 -0.02888834 -0.057594817 0.087710574
000290 e0 58 8d bd e0 a5 0e be 31 08 25 bd a9 03 fc 3d
       -0.06901717 -0.13930464 -0.040291015 0.123053856
0002a0 e7 dd 50 bc e4 a4 b8 bd e3 c0 62 3d 65 86 be 3d
       -0.012748218 -0.090158254 0.055359732 0.093029775
0002b0 d1 e2 49 bd d4 00 a7 bc aa a0 0d 3d a8 1b 23 3e
       -0.049288575 -0.020386137 0.03457705 0.15928519
0002c0 d4 8f db bd 46 c4 8a bd e4 5c 5a bc a3 e3 0b 3e
       -0.107207924 -0.067757174 -0.013327811 0.13661055
0002d0 a7 fc b4 bd 5b 29 e7 3c 1d 53 ca bd 21 43 1d 3d
       -0.08837252 0.028217962 -0.09879134 0.038394097
0002e0 a9 7c 88 3d 8b f2 b4 bd 43 5f ef bd 97 48 1c be
       0.06664402 -0.08835324 -0.116880916 -0.15262066
0002f0 42 18 04 3e 49 7b cb 3d 2d ed bb 3d 2d 90 dd 3d
       0.12899879 0.09935624 0.09176097 0.10818515
000300 01 4f f3 3d 04 84 c2 bd 58 ea 00 bd 73 80 b4 bd
       0.11880303 -0.09497836 -0.031473488 -0.08813562
000310 f4 65 c3 3d c0 f7 bd ba 46 16 9e 3d a3 3d 0e 3d
       0.095409304 -0.0014493391 0.07719092 0.03472675
000320 24 86 c9 bd ad f0 d4 bd 65 30 b9 bd 8c e2 0a 3d
       -0.098400384 -0.10397468 -0.09042434 0.03390746
000330 b6 3a 82 3b 3a 5e 7f 3d 6c 2a 0d 3d b1 a8 dc 3d
       0.003974284 0.06234572 0.034464285 0.10774363
000340 d1 c4 22 bd 86 57 a4 3d ed 09 d5 3d 57 fe 44 3d
       -0.03973848 0.08024506 0.10402284 0.04809412
000350 77 19 4a bd c2 ea 7e 3d 24 e1 e4 3d cd 6e 91 3d
       -0.04934069 0.0622356 0.11175755 0.07101212
000360 0a 48 59 bc 5f 88 86 3d 6d 37 47 bd fa ee 1c 3e
       -0.013261804 0.065689795 -0.048636843 0.15325537
000370 9b 6d 20 bd 08 f6 b7 3d 7a 18 4d bd 3c 42 3a 3c
       -0.039167028 0.089824736 -0.05007217 0.011368331
000380 50 e9 36 3d d1 7a cc 3d 7f 83 aa bd 4a 85 8c 3c
       0.044656098 0.09984363 -0.08325862 0.0171534
000390 e8 8c 7b bc 17 b1 e6 3d c6 b2 3a 3d 57 06 88 3d
       -0.015353419 0.11264246 0.045580648 0.06641834
0003a0 48 20 80 bd 79 92 cc 3d ad 32 20 3d 26 d2 04 bd
       -0.06256157 0.09988875 0.03911083 -0.032426976
0003b0 ba 4d f1 bd 7d ec c8 bd 82 5c fa 3d 7d d4 04 3e
       -0.11782403 -0.098107316 0.12224676 0.12971683
0003c0 fb 1a a1 bd 2a 4f ff 3c a8 32 fa 3c 8b 41 13 bd
       -0.07866474 0.031165678 0.030541733 -0.03595118
0003d0 75 4d 82 3b 88 e4 8c 3c e2 db 4f 3d ea 0c 17 3d
       0.0039765188 0.017198816 0.050746806 0.03687755
0003e0 17 bd 13 bd ea 6c 87 3d 43 a0 9f 3d 6f 26 9e bd
       -0.036069002 0.066125706 0.07794239 -0.077221744
0003f0 2e 2a c3 3c 62 8c 83 bd ed b0 e0 3d 47 3a b8 bd
       0.023823824 -0.0642326 0.10971246 -0.089954905

bias_hh_l0 f4 [256]
000000 e5 35 09 3e bc 7a 22 3e 28 27 10 bd 08 89 a3 bc
       0.13399465 0.15867132 -0.035193592 -0.019962803
000010 4f 14 ea bd 72 cf ed bd 7a 07 18 be 94 46 d4 3d
       -0.11429655 -0.11611833 -0.14846602 0.10365024
000020 22 0c 56 bc ce 12 77 3c 78 57 c0 3d 21 26 d3 3d
       -0.013064416 0.015080167 0.09391683 0.10310007
000030 a9 c5 e3 bd f4 52 85 3d 89 b4 0c 3d 13 b5 f6 3d
       -0.11121685 0.06509963 0.03435186 0.12046256
000040 ef d9 d2 bc c2 54 8a 3d 7f 7e b2 3d b4 90 e1 3c
       -0.025738684 0.067544475 0.087155335 0.02753482
000050 23 f1 a1 3d 5e 3c 7a bc a1 86 3c 3c 07 db 63 3d
       0.07907321 -0.015273182 0.011506707 0.055628803
000060 7b de fb 3d a4 ad e3 3d a3 6b 43 bd 6d c4 da bc
       0.12298294 0.11117104 -0.047710072 -0.026704991
000070 5d bc a1 bd 75 fb 89 bc 8b e6 0c be 06 86 18 3e
       -0.078972556 -0.016843537 -0.1375982 0.14894876
000080 a9 26 fe 3d 2b 3e bb bd 2f b9 4c 3c 66 4a 0d bc
       0.124097176 -0.09142717 0.012495323 -0.008623695
000090 ba 7f 2c bd c1 79 02 bd d7 f3 73 3b 52 34 0f 3e
       -0.042113997 -0.031854395 0.0037224197 0.13984802
0000a0 0c c6 20 3e 4d 01 f2 bd d1 0a 92 bd 28 64 d3 3d
       0.15700549 -0.11816654 -0.07130969 0.10321838
0000b0 18 de b9 3d 4e ec ac 3d 8a b0 17 3e 19 86 b6 bc
       0.09075564 0.08443509 0.14813438 -0.02228074
0000c0 af 4b fe bd fa 82 ce 3d 0a 97 4c 3d 3e 4e f3 bc
       -0.12416779 0.100835755 0.04994873 -0.029700395
0000d0 90 8b 90 ba 1b 79 b5 3d 8b 01 44 bd 70 e5 b4 3c
       -0.0011027921 0.0886099 -0.047853034 0.02208206
0000e0 e7 7c de 3d 70 ce 09 be fa bd 90 3d 8b be 23 3e
       0.10863667 -0.13457656 0.07067485 0.15990655
0000f0 ba 8e 90 3d 70 57 a3 bc 34 b5 05 3e f6 42 60 bd
       0.07058473 -0.019939154 0.13057405 -0.05475136
000100 26 cc 09 3e ac 9f 95 3d d3 09 a7 bc b7 7f db 3c
       0.13456783 0.073058456 -0.020390427 0.026794298
000110 67 e0 21 3d bd 2d 6f 3b ed c6 ec bd a0 68 15 3e
       0.039520647 0.0036495768 -0.115613796 0.14590693
000120 08 96 df bd e6 27 21 bc f4 2c 03 be e4 35 e0 3d
       -0.10917288 -0.009836173 -0.12810117 0.10947779
000130 07 a5 77 bd f6 bb f6 bb 6b 97 bf 3c 2d e6 0b 3c
       -0.060460117 -0.007529731 0.023387631 0.008538765
000140 77 da d9 bd 7d 94 da 3d c8 76 d4 bd 6a b8 2f bb
       -0.10637372 0.10672853 -0.10374218 -0.00268128
000150 65 86 96 bd bf 0f e6 bd d5 37 33 bd 18 2e ce bd
       -0.073498525 -0.11233472 -0.043754417 -0.100673854
000160 a2 07 ad 3d fd b7 bf bd d2 aa 2c 3d 96 84 12 3e
       0.084487215 -0.09361265 0.042155094 0.1430839
000170 82 1e 93 bd e1 66 ae bd 96 92 d7 bd db e4 66 bd
       -0.07183553 -0.08515716 -0.10526006 -0.056370597
000180 c2 9a 28 bd 21 b2 33 bd 76 f4 02 be a6 e1 b8 3c
       -0.041163214 -0.04387105 -0.12788567 0.022568535
000190 15 bb 1e 3e c7 55 48 3c a4 6a a6 bc 91 d4 dd 3d
       0.15501054 0.012227482 -0.020314522 0.108315594
0001a0 95 a7 fc 3d b7 41 97 3d 09 c9 e4 3d 54 bc 5f bd
       0.12336651 0.07385581 0.11171157 -0.054622963
0001b0 78 6f c9 3d 30 15 a1 3d 53 34 6d 3d 7f 0d 12 3e
       0.09835714 0.07865369 0.05791123 0.14262961
0001c0 11 9e d2 bd e8 12 82 bd 5a 69 87 bd 9c 9c 00 3e
       -0.10284055 -0.06351262 -0.06611891 0.12559742
0001d0 e9 b3 27 bd 0b 5f 7d bd 93 26 64 3d 2b 9b 8b bd
       -0.04094306 -0.06185822 0.05570085 -0.06816705
0001e0 3f d6 e1 bc 96 8a c6 bd d6 ea 76 3b 22 17 17 3e
       -0.02756798 -0.09694402 0.0037676594 0.14754918
0001f0 91 32 49 3d 86 3c 00 3e 8a a8 09 bd c8 7f d3 bd
       0.04912049 0.12523088 -0.033607997 -0.10327107
000200 77 8f e1 3d 0c 48 11 be e8 94 c1 3d e7 4f bb bd
       0.11013692 -0.1418764 0.0945223 -0.091460995
000210 fb 8b 96 bd 5a 77 c0 bd ad b9 51 bc be 03 21 be
       -0.07350918 -0.093977645 -0.012800616 -0.15724084
000220 62 2d 50 3d e1 1e ac bd 37 a4 10 3d 1a 16 a4 3d
       0.05082453 -0.08404327 0.035312857 0.08012028
000230 84 5f ae bd b8 bd ae 3c b6 d7 ca bd f4 30 e9 3c
       -0.08514312 0.0213307 -0.09904425 0.028465725
000240 09 b3 1b bd 96 71 34 bd 2d 45 40 bd 10 63 d8 bd
       -0.038012538 -0.044053636 -0.04694097 -0.1056577
000250 83 f1 b2 bd 9e ee 1f 3c 4a b2 48 bc ee 53 2c bd
       -0.08737471 0.009761481 -0.012249539 -0.04207223
000260 2e 3c ed 3d 52 93 1f 3e 60 87 1d 3e 79 13 1d 3e
       0.11583744 0.15583542 0.15383673 0.1533946
000270 74 2c 8d 3d d5 d9 b9 bc bd 06 a9 bd 6f 67 ed bd
       0.068932444 -0.022686878 -0.08253238 -0.11591994
000280 94 19 d1 3c d2 f2 03 3e cc d4 b3 bd 90 4a 15 be
       0.025524892 0.12885597 -0.08780822 -0.14579225
000290 cb ef 92 bd bb f1 af bd b7 e8 9a 3d e7 fc 0c bd
       -0.07174643 -0.08591028 0.07563918 -0.034420874
0002a0 5e 9b 5a bd 52 d5 a8 bd 37 47 01 be 08 f6 a6 3c
       -0.053370826 -0.082438126 -0.12624823 0.020380989
0002b0 3a fb 1f 3e e6 51 12 be 63 33 f3 3c 8b 1c 56 bd
       0.15623179 -0.14289054 0.029687589 -0.052273314
0002c0 1c 3c a4 bd 18 ba a4 bd 2a 0a 88 bd c4 27 ad 3c
       -0.080192775 -0.08043307 -0.06642564 0.021137126
0002d0 3f b2 ca bd 3c 00 09 3d 92 62 84 bd f1 90 6e 3d
       -0.09897279 0.03344749 -0.06464113 0.058243696
0002e0 c1 97 ba 3c 95 3a b1 3d c3 ca 8b bc 37 74 5d 3d
       0.02277744 0.08653752 -0.017064458 0.05406591
0002f0 94 a5 f9 3d ed 8e e7 3d 9d 00 07 3e a9 64 a1 bd
       0.12189785 0.11306558 0.13183828 -0.078805275
000300 29 8f b2 bd 70 15 42 3b 61 ed 9b 3a 5c 1a b5 bc
       -0.08718712 0.0029614829 0.0011896306 -0.022107296
000310 99 39 7d 3c 45 b8 bf bd 1c 97 a9 3d 9a 09 9c bd
       0.015455627 -0.093613185 0.08280775 -0.07619019
000320 60 74 f7 3d 34 17 0a bd 09 c2 13 bc 89 5c 9d bd
       0.12082744 -0.033713534 -0.00901843 -0.07683665
000330 02 f4 84 bd 28 29 29 3d a0 e3 97 bc 1c 60 ea 3c
       -0.06491853 0.041299015 -0.018541157 0.028610282
000340 e3 bc ab bd d1 c4 12 3e 62 02 6f 3c 71 e4 c0 3d
       -0.08385637 0.14332892 0.01458797 0.09418572
000350 d2 f2 a3 3d 92 82 f3 bd c0 c0 cf 3d 1c 40 61 3c
       0.08005299 -0.11890139 0.10144186 0.013748195
000360 0b 11 8b bd 6a 8c a6 bd 0f 1e 9a bd 22 75 21 3e
       -0.0679036 -0.081322506 -0.075252645 0.15767339
000370 0d 60 05 3e 79 33 51 3d ea 8f ca 3a 4b f9 df 3d
       0.13024922 0.05107448 0.0015454267 0.10936221
000380 95 ba 15 3e 07 bc 3c 3d 6f a7 93 3d 59 20 75 3d
       0.14621957 0.046077754 0.0720967 0.059845302
000390 b3 7e 11 bd 00 a5 b7 3c e6 48 a5 3d 87 c0 ea 3c
       -0.03552122 0.022417545 0.08070545 0.028656257
0003a0 f8 58 57 bd 6d 79 bc 3d 83 54 b6 bc 9d f7 da 3c
       -0.05257508 0.09202848 -0.022257095 0.0267294
0003b0 44 24 c7 3a dc 7c 4d bd 66 b5 7b 3d 03 b3 29 bd
       0.0015193303 -0.050167903 0.061452292 -0.041430485
0003c0 d7 57 1d bd a1 c7 fd 3d 06 b9 50 3d 2c 87 6c bc
       -0.03841385 0.12391592 0.050957702 -0.014436524
0003d0 64 ba 8e bc ca 1f 67 3d bf c0 c6 3d 56 70 62 3d
       -0.017422862 0.0564268 0.09704732 0.055282913
0003e0 9a 05 73 3c 80 72 31 bd 9b 2f 85 bd 15 6d f9 3d
       0.0148328785 -0.043322086 -0.06503221 0.12179009
0003f0 ba a4 ac bc ba fd a2 3d db 21 97 3d b5 ca 8c 3d
       -0.021074641 0.07958551 0.07379504 0.06874601

weight f4 [2, 64]
000000 ac 2c 09 3e 58 f9 b5 bc 2d 6c 82 3d d4 f4 0d bd
       0.13395947 -0.022213623 0.06368289 -0.034657314
000010 f0 4a f4 bd e1 4e d0 3c 74 83 c6 bd e8 db de 3c
       -0.11928356 0.025428237 -0.096930414 0.027204469
000020 73 6a 24 3d b0 58 be 3c 1f 78 0a bb ae cb 0d 3e
       0.04014058 0.023235649 -0.0021128727 0.13847229
000030 43 26 6f 3d 1b d1 ca bd 2c 74 09 3d 21 a1 00 be
       0.0583861 -0.09903165 0.033558056 -0.12561466
000040 90 5c ab bb 79 ad 17 be 85 0d 63 ba ce 01 d2 3c
       -0.00522954 -0.14812268 -0.00086613774 0.025635626
000050 33 fa 13 be 8a 54 bb bc 91 1f a7 bd 35 64 0f bd
       -0.14450912 -0.02286746 -0.08160318 -0.035007674
000060 26 e6 14 3e f2 ec e3 bc b0 2f c4 3d 10 7c 94 3c
       0.1454092 -0.027822945 0.09579408 0.018125564
000070 7b 76 8f 3d ca b4 71 3d 28 eb 27 bc 22 74 18 be
       0.0700502 0.059010305 -0.010248937 -0.14888051
000080 39 37 ac 3d 6a 4a 44 3d ec fb 4c 3c 47 1b a9 bd
       0.084089704 0.04792253 0.012511235 -0.08257156
000090 5b 61 f4 bd 92 7e 6e 3d 0c 32 79 3d 13 71 ca 3c
       -0.119326316 0.058226176 0.060838744 0.024712121
0000a0 cf bb 95 bc e6 0b 63 bd e1 32 12 3d cd 87 37 3d
       -0.01827803 -0.05543127 0.035693053 0.044807244
0000b0 11 02 6b 3d 03 a5 77 bd b1 2d 5a 3d 81 f1 9e 3d
       0.057375018 -0.0604601 0.05326623 0.07760907
0000c0 b0 d3 41 3d 23 bc 44 bd 91 9c d5 bb cc fc 71 3d
       0.04732102 -0.048030984 -0.0065189083 0.059078977
0000d0 35 4a 00 bb 80 e0 00 be c0 31 93 3d 39 b7 0b 3e
       -0.001957548 -0.1258564 0.071872234 0.13644113
0000e0 50 4d fd 3d e8 b0 21 3d 46 e6 28 3d fe 1e f4 bd
       0.12368262 0.03947535 0.04123523 -0.11919974
0000f0 4c 2d 12 3e 99 5c 0e 3e 5d 1f 13 3e 36 31 fd 3d
       0.14275092 0.1390251 0.14367433 0.12362902
000100 ce 48 a0 3a 74 21 19 3d 4c 70 05 bd e0 e7 51 bb
       0.0012228729 0.03738542 -0.032577798 -0.0032029077
000110 b1 39 74 3d 80 40 d8 bb 1e 16 d9 3d 25 69 bc 3d
       0.05962533 -0.006599486 0.10599922 0.09199742
000120 7c 1c 14 bd ff 0d 80 bd 8d b4 ed bb b4 08 66 3d
       -0.036159977 -0.062526695 -0.0072541893 0.056160644
000130 de a1 c3 bd 9b db 47 3d d3 24 03 3e 6a a6 a0 bd
       -0.09552358 0.048793416 0.12807016 -0.07844241
000140 54 e7 95 3c b2 26 08 3d 98 ad ab bd d6 bb 13 3d
       0.018298782 0.033240028 -0.0838272 0.036067806
000150 66 95 09 3d 24 f9 db 3b 65 65 e0 3d c1 3e e2 bd
       0.033589743 0.0067130495 0.109568395 -0.110471256
000160 2f 22 90 3d 27 a9 df bd 3f 51 06 be c4 87 f1 bd
       0.0703777 -0.10920935 -0.1311693 -0.11793473
000170 1d ac d3 bc b9 fd 29 3d 80 6b 94 bd 41 fa 90 3c
       -0.025838906 0.041501734 -0.072470665 0.017697455
000180 ca f0 e8 bd 0b 37 95 bc 81 e5 b9 bd 27 3b 2c 3d
       -0.11374052 -0.018214723 -0.090769775 0.0420486
000190 bb f9 1d 3d a4 a0 9b 3d 41 4b 8c 3c 5d 03 22 bd
       0.03856824 0.07598999 0.017125728 -0.03955399
0001a0 3f a6 ad 3d d6 55 e1 bc 46 6e f5 3d 0c 68 bc 3d
       0.084789746 -0.02750675 0.119839236 0.09199533
0001b0 b7 1a 31 bb 9e ab a7 3d db 2e 00 be 8d 68 d8 bc
       -0.002702398 0.0818703 -0.12517874 -0.026417041
0001c0 e6 e4 bf bc 93 0b 25 3c 06 df f3 bb eb be d9 3c
       -0.023424577 0.01007356 -0.007442358 0.026580295
0001d0 fb 35 16 bd 6a 6c 82 3c 30 17 55 bc f6 f6 15 be
       -0.036672574 0.015920836 -0.013006017 -0.1464499
0001e0 30 80 8b bd 98 1e 4e 3d 5e f5 5c bc 41 a6 df 3d
       -0.06811559 0.050322145 -0.0134862345 0.10920382
0001f0 e4 88 f9 bd f3 d7 6c bb 15 53 6a 3d ff 43 c9 bd
       -0.12184313 -0.0036139458 0.05720814 -0.09827422

bias f4 [2]
000000 43 8d 00 3e db 31 be 3c
       0.12553887 0.023217132
