t2_lstm_glove.pt (torch, 379332 bytes, 6 tensors)

weight_ih_l0 f4 [256, 300]
000000 10 a2 09 3d 51 9e ca 3d f7 4b 59 3d 9e 05 da 3c
       0.03360182 0.09893478 0.05305096 0.026614007
000010 61 1b ef 3d c0 a3 82 3d ee a9 51 bc 6d e7 8b 3d
       0.11675144 0.06378889 -0.012796862 0.0683125
000020 cc 08 ef bd c5 18 a3 bc 1d 61 45 3d 6f d6 81 3d
       -0.116716 -0.019909272 0.048188318 0.06339728
000030 dc 4e 7c 3d 36 da 0a 3d 6d 49 9c bd df 16 85 bc
       0.061598644 0.03389951 -0.07631192 -0.016246257
000040 96 ff 89 bd 87 fe cd 3d b3 d1 a4 bd d7 64 be 3d
       -0.06738202 0.10058313 -0.080478095 0.092965774
000050 6c 2b 0b 3d 88 c7 c0 3d c9 d4 8c 3d f2 3a 10 3d
       0.033976957 0.094130576 0.06876523 0.035212465
000060 a9 22 07 3d 8e bd ae bd d0 ad 91 bd 87 a5 09 be
       0.03299204 -0.085322484 -0.0711323 -0.1344205
000070 0c 25 82 bd 11 34 0a 3c ec 1c c0 bc 95 40 99 bd
       -0.063547224 0.008435265 -0.023451291 -0.07483021
000080 ff 18 bb bd 78 a9 97 bc 6a b0 d3 bd b1 d7 83 bd
       -0.09135627 -0.018513426 -0.10336383 -0.06437624
000090 0e 56 d5 3d 4b 8c 82 3c 90 95 11 3d bd cb a7 3d
       0.10416804 0.015936038 0.035543025 0.08193157
0000a0 e3 36 2d 3e a9 e0 03 be 75 ec 08 bd 7f 59 54 ba
       0.16915469 -0.1287867 -0.033428628 -0.0008100494
0000b0 53 03 cd bd 7e 27 07 be 99 a5 ec bc 90 6e fc bd
       -0.100104 -0.13198659 -0.028887557 -0.123257756
0000c0 1a 72 f7 bd f4 0a 43 bd 90 d1 85 3d ba 9e bb bd
       -0.1208231 -0.047617868 0.065341115 -0.09161134
0000d0 f1 1d de 3c 40 cd 7e 3d 81 a5 ce 3d 71 77 00 bd
       0.027113887 0.06220746 0.10090161 -0.03136391
0000e0 a6 fe e3 bd 3b c5 19 3c b7 c0 a8 bd 20 86 15 3e
       -0.11132555 0.009385402 -0.082398824 0.14601946
0000f0 74 25 f6 bd f9 39 7f bd 32 a5 38 bd 66 11 2e 3b
       -0.12018862 -0.062311146 -0.045079418 0.0026560663
000100 da d3 8f 3d 23 86 70 bd ab 73 bb 3d 25 dc 1a 3d
       0.07022829 -0.058721673 0.09152921 0.037807602
000110 5e 3a 8b bd b6 b1 22 3d 60 a0 f4 3d 80 f1 ff 3c
       -0.06798242 0.03972026 0.119446516 0.031243086
000120 2e 05 d8 3d e3 e2 e8 3d 6f 7e 04 be 01 5a 66 bd
       0.10547863 0.113714 -0.12938856 -0.05623818
000130 d9 e3 16 3d aa 69 02 be b6 a6 a8 bd 54 13 41 bc
       0.036838386 -0.1273562 -0.082349226 -0.011784393
000140 68 17 a4 3b 70 f6 f9 bd 4e be 98 bd 5e 3b 94 bd
       0.005007673 -0.12205207 -0.07458173 -0.07237886
000150 82 36 6e 3d 04 b7 fe 3d 93 d4 c3 3d 4e 30 b2 bd
       0.05815745 0.12437251 0.0956203 -0.0870062
000160 93 1a 1e 3d 48 5d 9f 3d 30 fe 9c bd 4d 0e 4f bd
       0.038599562 0.07781464 -0.0766567 -0.050550748
000170 6d af 7f bc 3d 6b bf 3c 0f 75 6c bd 65 ab ad bd
       -0.01560579 0.023366565 -0.057728823 -0.084799565
000180 1a cc 97 3d 9d 7a 95 3d cc 5f ef 3a 50 01 98 bd
       0.07411976 0.07298777 0.0018262803 -0.07422125
000190 ec 1b 9a 3d 69 c2 ee bd 21 a3 99 3d 7f 4c ca 3d
       0.07524857 -0.116581745 0.075018175 0.09877872
0001a0 ae 7b 85 bc 35 91 3d bd 6e 59 d7 3d 9a cf 69 3c
       -0.016294327 -0.04628106 0.10515104 0.0142706875
0001b0 40 0f 9a 3d eb 0a 01 3d 55 2f 19 3e 6a 83 eb 3c
       0.0752244 0.031504553 0.14959462 0.028749187
0001c0 8c 6b f8 3d 0d b6 99 3d bd 4e f2 bc 36 44 8f 3d
       0.12129888 0.075054266 -0.029578561 0.06995432
0001d0 7d 69 99 3c 57 b0 d8 3d 65 9d 13 bc 26 09 9f bd
       0.018727059 0.10580509 -0.009009694 -0.07765417
0001e0 84 1c d6 3d 31 72 80 bd 91 06 ee bd e2 da 96 bc
       0.10454658 -0.0627178 -0.11622346 -0.018414918
0001f0 70 13 9d 3c f5 83 15 bd 52 86 d6 bd a3 d7 bf ba
       0.019174308 -0.036502797 -0.10474838 -0.0014636408
000200 54 17 d9 3d e2 88 2a 3c de 1f a4 3c 9c ac 2b 3e
       0.106001526 0.010408612 0.020034727 0.16765064
000210 4f 41 c9 bd a3 47 7f 3d 71 09 fb 3d 2e 61 11 be
       -0.0982691 0.062324177 0.1225766 -0.14197227
000220 a9 fc b6 3d 85 2e 3b bd 1e 80 ae 3c ea 10 84 3d
       0.0893491 -0.04569866 0.021301325 0.064485386
000230 88 45 de bd c8 0e 87 bd 07 70 3a 3d 27 a1 45 bc
       -0.10853106 -0.06594616 0.045516994 -0.0120623475
000240 83 51 18 bd 17 52 ad bd 81 83 21 3d e8 25 05 bd
       -0.03718711 -0.08462923 0.039432053 -0.032506853
000250 75 de 7e bd 31 4b 4b 3d cb 57 0b bd ad 71 91 3d
       -0.06222387 0.049632255 -0.034019273 0.0710176
000260 1e 86 a8 3d a6 ff a5 3d d3 97 e1 bd ca 97 5a bd
       0.08228706 0.08105402 -0.11015286 -0.053367414
000270 e8 94 b8 3c 94 ca a9 3d 5f cd 5d bd 55 14 6f bc
       0.022531942 0.08290592 -0.054150935 -0.01459225
000280 49 40 07 3e a8 98 1a 3d 3d 71 73 3d 75 a2 f5 3d
       0.13208117 0.03774324 0.059434164 0.11993877
000290 4f 52 03 3e 8a bc 74 bd 36 ca 09 3e b6 42 96 3c
       0.12824367 -0.059750117 0.13456044 0.018342357
0002a0 f5 70 72 3d 73 c8 01 3e b9 cf 07 be 52 17 a9 bd
       0.059189755 0.12674122 -0.13262834 -0.08256401
0002b0 da 65 cc bc df 2c 9d bd f6 82 f5 3b f3 fe 2e be
       -0.02495091 -0.07674574 0.0074924184 -0.17089443
0002c0 34 8b fe 3d e4 6a 08 3e 98 06 86 bd 56 30 b0 3d
       0.12428895 0.13322026 -0.065442264 0.08602969
0002d0 93 f4 19 3d 79 c7 b5 3d 32 22 e6 3d 57 ab 27 3b
       0.03758676 0.08875937 0.11236991 0.0025584304
0002e0 8d e6 92 bd 92 0b ca bd 35 aa 1a 3c 5d c9 c1 3d
       -0.0717288 -0.09865488 0.009439995 0.09462235
0002f0 c8 8b 85 bc a3 cb d9 bd 0a b5 8c 3c 17 3d ce bd
       -0.016302004 -0.10634544 0.01717617 -0.10070246
000300 74 0e 24 bd 13 52 a1 bd 91 74 23 bd 96 f5 e5 3d
       -0.040052846 -0.078769825 -0.03990609 0.112284824
000310 7f b3 b0 3b 8d db be bd 28 b6 89 3d 53 67 0a 3e
       0.0053924914 -0.0931922 0.06724197 0.13515978
000320 d3 2a a7 bd 96 f2 de bc f1 7c 8e 3b 6c cd c4 3d
       -0.08162465 -0.027215283 0.0043483903 0.096094936
000330 57 66 cd bc 4b a9 f0 bd 50 97 96 3d 6a 8f 54 3d
       -0.025073214 -0.1175104 0.07353079 0.051894583
000340 18 d8 b3 3d 03 61 71 3d ea 54 09 be c1 0e 01 3e
       0.08781451 0.05893041 -0.13411298 0.12603284
000350 4e cc ce bd 30 30 85 3d 33 69 1d bc 38 b1 9b bd
       -0.10097562 0.06503332 -0.009607601 -0.07602161
000360 64 cf 19 bb 06 20 b7 bd f3 0e 98 ba 0c 9f 73 3d
       -0.0023469562 -0.08941655 -0.0011601135 0.05947785
000370 88 dc a8 39 44 19 13 3d b2 0a 21 3d fe 42 a8 3d
       0.00032207766 0.035912767 0.03931684 0.08215903
000380 c2 63 86 bc 2c 71 88 3c 6d 92 62 3d 2c f9 16 3d
       -0.01640499 0.016655527 0.055315424 0.036858723
000390 f5 61 40 3e f4 73 94 bd dd a5 8b 3d 2e 7f 39 3d
       0.18787368 -0.07248679 0.06818745 0.045287304
0003a0 26 e0 59 3d e3 14 89 3d b7 bd 4b 3d 9e e2 93 bb
       0.05319228 0.06693437 0.049741473 -0.004513099
0003b0 64 58 6f 3d 07 76 86 3d ff 68 3a 3d 2c 7a 6a bd
       0.058433905 0.06565481 0.04551029 -0.05724542
0003c0 85 9e 67 bd 9e be ac bd 20 36 7f 3b 39 c0 0a 3e
       -0.05654766 -0.08434795 0.0038942173 0.1354989
0003d0 62 7d 22 3d 04 f7 13 be 77 3f 97 3c 88 5e 1c be
       0.039670356 -0.14449698 0.01846288 -0.15270436
0003e0 c9 5f 35 3d ae 8a 06 3d 6d d8 9d bd e1 a1 80 3d
       0.0442808 0.0328471 -0.077072956 0.06280876
0003f0 74 8e 7a bd 56 12 78 3d 16 f1 9d bd bf 37 be 3d
       -0.06117101 0.06056436 -0.07711999 0.092879765

weight_hh_l0 f4 [256, 64]
000000 2b da 67 3d 3a b2 e9 3c 1b ec 1d 3d ef 54 eb 3d
       0.056604546 0.028527368 0.038555246 0.11490809
000010 26 47 06 3d fc 65 bf bd f2 59 b9 bd 3c 38 dc 3c
       0.032782696 -0.09345624 -0.09050359 0.026882283
000020 b9 14 ba bd 62 4c ab bb b1 58 98 bd bc 29 95 bd
       -0.09085984 -0.0052276114 -0.074387915 -0.07283351
000030 0e 88 c4 bd 3a 79 2e bd ea e4 31 3d e5 07 97 3c
       -0.09596263 -0.04259608 0.0434312 0.018436382
000040 cf c4 db bc 77 38 bd bd 5b 59 f6 bd 8a da c9 bd
       -0.026827244 -0.092392854 -0.12028762 -0.09856136
000050 8f 8a 2a bd 44 c4 f2 3a cf 8c 00 bd 92 9d 7c 3d
       -0.041636046 0.0018521626 -0.031384286 0.06167371
000060 c9 bf 72 bd 75 91 b7 3d 82 d1 b1 bd f0 bd 48 bc
       -0.05926493 0.089632906 -0.086825386 -0.012252316
000070 77 09 06 3c 09 dd c1 bc 04 df 14 be 68 5d 4b bd
       0.0081809675 -0.023664968 -0.14538199 -0.049649626
000080 bd fa 8f bd eb 50 a6 3d a6 39 c1 3d 21 37 63 bc
       -0.070302464 0.08120903 0.09434824 -0.013868124
000090 03 d9 d2 bd e0 53 b8 bd 57 49 e1 3d 74 84 88 3d
       -0.10295298 -0.09000373 0.110003166 0.066658884
0000a0 92 2f 1e bd a9 4d 99 3d ee 80 77 bc e6 a3 9d bd
       -0.038619585 0.074855156 -0.015106423 -0.07697277
0000b0 0c 9b c2 3d d6 aa 6e bd e2 02 43 bd aa d2 99 3d
       0.09502229 -0.05826839 -0.04761017 0.07510884
0000c0 03 bf b7 bd 77 b2 9d bd bc 1a 05 3e b4 70 c0 3d
       -0.089719795 -0.07700055 0.1299848 0.093964964
0000d0 cc eb c0 bc f1 5b c2 3d 64 87 be bd 95 fa 4e bd
       -0.023549937 0.09490193 -0.093031675 -0.050531942
0000e0 ef 1b ac bd a0 2d 2b bd 81 bc a5 3d ca c2 f6 bd
       -0.084037654 -0.04179156 0.08092595 -0.12048872
0000f0 d6 d7 96 3d 83 e8 8f bd 15 02 d4 bd 90 46 b4 3c
       0.07365386 -0.0702677 -0.103519596 0.022006303
000100 e5 53 4e 3d b2 37 9a 3c 9f 9c 78 3d a9 b4 b2 bd
       0.050372977 0.018825386 0.06069624 -0.087258644
000110 f5 0b 85 bd 51 10 82 3d c5 b4 6f bd aa 82 80 bd
       -0.06496421 0.06350768 -0.058522005 -0.06274922
000120 36 a8 0d 3c bf 20 de 3d 3f 40 d9 bd 8f df e7 3c
       0.008646062 0.108460896 -0.10607957 0.028304843
000130 80 60 c0 bd 8f c4 d7 3d 81 0e cf 3d 32 86 1a bd
       -0.09393406 0.105355375 0.10110188 -0.037725635
000140 60 f4 60 3d 19 ae f0 3c 70 c5 3d bd 6f 07 4e bd
       0.054920554 0.029379891 -0.04633087 -0.050300058
000150 27 fa 6a bd 23 3c 9c 3d c3 3e 10 be 9c d7 36 bd
       -0.05736747 0.07628658 -0.14086442 -0.044639215
000160 19 a2 74 bd df e6 04 be cd af 9a 3c 87 bf de bd
       -0.0597249 -0.12978695 0.018882656 -0.10876375
000170 d6 70 a7 3d d4 c3 95 3d c1 f0 08 be 31 4a 12 bc
       0.081758186 0.07312742 -0.1337309 -0.008928821
000180 42 3f aa 3d 56 cf eb 3d 91 78 6e 3d 8b e1 30 3d
       0.08312847 0.115141556 0.05822045 0.043183845
000190 9a ba 89 3d a9 ab 0a 3e 45 15 55 bd f5 17 c4 bd
       0.067250445 0.13542046 -0.052022237 -0.09574882
0001a0 13 cc 1c 3e 6a 53 8a bd e2 f1 93 bc 78 c8 9d bd
       0.15312223 -0.06754191 -0.018059675 -0.07704252
0001b0 d6 78 a1 38 81 95 0a be ff 3a 3a 3d fc f7 3c bd
       7.699586e-05 -0.13533594 0.04546642 -0.046134934
0001c0 93 b1 e5 bd 20 62 8f 3d aa bc cc 3d 8a 37 e4 bd
       -0.1121551 0.07001138 0.09996922 -0.11143406
0001d0 d4 ff 02 3d 30 05 e1 bc a5 9d f6 bc c7 b0 c1 bc
       0.031982258 -0.027468294 -0.030104468 -0.023643864
0001e0 15 bc b5 bd b6 0d 96 bd cf 53 b7 3d 32 ce 03 be
       -0.088737644 -0.07326834 0.08951532 -0.12871626
0001f0 68 dd dc 3a fa 49 85 3d fc fa 61 3d a1 b5 4e 3d
       0.0016850652 0.065082505 0.055170998 0.050466184
000200 35 c4 b6 bd a2 76 27 bc e8 00 aa bd eb cb 0f be
       -0.08924142 -0.010221155 -0.08300954 -0.14042632
000210 c9 a1 ea bc 34 8c 1c 3d fc 91 12 3e e7 c8 6b 3d
       -0.028641598 0.038219646 0.14313501 0.057564642
000220 09 30 ba 3d 1f a1 01 3e ad dc a7 bc a1 3b 1a bd
       0.09091193 0.12659119 -0.020490969 -0.037654523
000230 21 50 5c 3d fa ac e5 3d c1 14 84 3c fc e2 ff 3c
       0.053787354 0.11214633 0.016123177 0.031236164
000240 f5 07 4c bd 02 b2 cd bd 13 3f e0 bd 15 8f e9 bb
       -0.049812276 -0.10043718 -0.109495305 -0.0071276524
000250 cf d8 48 3d d8 af 25 be 80 da b1 bd 10 7f b1 3d
       0.04903489 -0.1618036 -0.08684254 0.086668134
000260 c9 be dc bd d7 28 bd bb df 50 60 3d d7 59 4a 3d
       -0.10778577 -0.0057726908 0.054764625 0.049402084
000270 f0 c3 16 be 02 60 1d be c3 28 97 3d a4 2e 2e 3c
       -0.14723182 -0.15368655 0.073808216 0.010631237
000280 d4 40 e2 bc 1e 14 77 bd 47 9c b3 3d 89 2a 91 bd
       -0.027618803 -0.06032192 0.08770042 -0.07088191
000290 bd de 1f 3e 1c 65 be bd d2 27 40 3d 8d 5f a3 3d
       0.15612312 -0.09296629 0.046912976 0.07977209
0002a0 ee 44 87 3d 83 16 db bc 85 9c 81 3d 3a c4 b1 3d
       0.06604944 -0.026744133 0.06328682 0.08680005
0002b0 f0 3b eb bc 43 1e 80 3d f0 48 30 bd 5a 14 9a bd
       -0.028715104 0.06255772 -0.04303831 -0.07523413
0002c0 6a de d9 bd bb 7f 05 3e 8f dc 0a bd b4 d6 70 3c
       -0.10638125 0.13037007 -0.033901747 0.014699627
0002d0 60 c0 88 bd 1b b5 68 3d 63 5e 30 bc 01 07 c4 3c
       -0.066773176 0.05681334 -0.010764691 0.023929121
0002e0 47 c7 94 bd 28 05 03 3e 6c dd a7 bd 6b c1 04 be
       -0.07264572 0.12794936 -0.0819653 -0.12964408
0002f0 c6 31 a1 bb 4e 3e 4e bd 62 4e 55 3d f9 3a 8e 3d
       -0.0049192635 -0.050352387 0.052076705 0.06944842
000300 3a 94 ed bd e3 dc ea bd e3 e1 bf bc 4f 86 3a bd
       -0.116005376 -0.11467912 -0.02342314 -0.045538243
000310 a6 b7 be 3d e3 d7 4c 3d 26 44 bf bc ca e8 12 3d
       0.09312372 0.050010573 -0.023347925 0.035866536
000320 41 a9 a8 3c 5a c5 7c 3d 6c dd fa 3c dc 1b f8 bc
       0.020588519 0.061711647 0.03062316 -0.030286722
000330 4c ba ef 3d 96 48 cc bd ef 9c be 3d 94 87 c9 3d
       0.11705455 -0.09974782 0.093072765 0.098403126
000340 8e 52 21 bd ad ef f8 3d 51 52 94 3c 2f eb f3 3d
       -0.03938537 0.121550895 0.018105658 0.11910092
000350 32 d7 d6 3c 46 7b 90 3d d5 c3 e5 bd 42 0c c4 3c
       0.02622566 0.070547625 -0.112189926 0.023931626
000360 98 c6 a0 bd 19 79 9c bd cf cb f6 3d df b2 c3 bd
       -0.07850379 -0.07640285 0.12050592 -0.09555601
000370 03 16 d9 3d 90 9f c6 3d 16 26 41 bd 4b aa 91 3d
       0.105999015 0.09698403 -0.047155462 0.07112559
000380 13 4b 8e 3d 9c 7a d8 3c d0 bb 0e bd e2 e7 c5 bd
       0.06947913 0.026425652 -0.03484708 -0.09663369
000390 e3 50 69 3d 17 4f f2 bc ca 53 5f bd 24 b2 65 bb
       0.056961905 -0.029578729 -0.054523267 -0.0035048807
0003a0 2e f5 06 bd 98 f6 aa 3c ee 10 57 3d ca 5c d2 bc
       -0.032948665 0.020869538 0.05250638 -0.02567901
0003b0 1c b5 06 3e b8 71 e7 3b 9c 7a 86 3a 9a ad 8a bd
       0.13155025 0.007063117 0.0010259929 -0.06771393
0003c0 be ae 59 3d b2 b5 7e 3c 70 82 1a 3d d1 8e dc bc
       0.053145163 0.015546249 0.03772205 -0.026923569
0003d0 5d 6d ed 3d 3e 8b a8 3d d0 e2 a9 bc c6 2f fe bd
       0.11593125 0.08229683 -0.020738035 -0.12411456
0003e0 75 a2 94 bd ad 4e 8b bd bd 10 c9 bd 28 f3 a0 3d
       -0.07257549 -0.068021156 -0.09817646 0.078588784
0003f0 3f 14 dd bd 4e 6e fc bc 9d 37 09 bc 94 40 fc 3d
       -0.10794877 -0.030814316 -0.008375076 0.12317005

bias_ih_l0 f4 [256]
000000 5a be 7d 3c dc b2 1c 3c 05 1f 1f 3d eb 97 61 3d
       0.015487278 0.009564128 0.038847942 0.05507652
000010 16 b8 ec 3d 93 91 d9 3c 00 02 7a bc b0 d9 e9 3c
       0.11558549 0.026558673 -0.015259266 0.028546184
000020 13 24 a8 3c 35 10 8d 3d e2 d4 b5 3d d7 a6 a7 3d
       0.020525014 0.06887857 0.08878495 0.08186119
000030 93 a0 ce bd a0 63 4d 3d 6b db 6c bb 44 3d 1a 3e
       -0.10089221 0.050143838 -0.0036141525 0.15062433
000040 76 83 3b bd 04 67 64 3d bc 64 80 3d f7 8c 9e 3d
       -0.045779668 0.055762306 0.062692136 0.07741731
000050 dd df 7a 3d db 73 9a 3d bd a3 d0 3d 18 11 1c 3d
       0.06124865 0.07541629 0.101874806 0.03810224
000060 ad 91 a5 bd fa eb ac 3c f8 a8 bf 3c cf 43 fe ba
       -0.08084426 0.021108616 0.023396 -0.0019398871
000070 5e cd ff 3c 27 9e 16 3e b2 c3 a7 3d ea d6 12 3e
       0.031225856 0.14708768 0.08191623 0.14339796
000080 4d c8 c7 3d 6c 2f c2 3d 60 3a 78 bd 9a 6a 1d bd
       0.09755001 0.09481701 -0.060602546 -0.03843174
000090 30 84 9f 3d ef a6 9f 3d df 6a 28 3d 08 9c d0 bd
       0.07788885 0.07795512 0.041117545 -0.101860106
0000a0 cc 4f 9d 3d a9 9d d3 bd cb 95 23 3e 06 9b 84 bb
       0.07681236 -0.10332806 0.1597511 -0.0040468005
0000b0 8f ee c1 3c 26 48 90 bd fd b6 d7 3d 0f 2f cd 3d
       0.023673324 -0.07045011 0.10532949 0.10018741
0000c0 c3 18 14 3e 86 df 6c bd 61 12 d0 3d e4 f0 10 3e
       0.14462571 -0.057830356 0.101597555 0.14154392
0000d0 c2 c8 a9 bd 02 9e 0e 3d 13 dd 8c bd 40 e5 aa 3d
       -0.08290245 0.034818657 -0.06878104 0.08344507
0000e0 fb 96 34 3c ff 0a a2 bd 21 80 91 bd 4e 38 af bb
       0.011022325 -0.079122536 -0.07104517 -0.005347288
0000f0 17 0e 95 bd 41 05 ad bd df e8 4e bd 9b 77 bf 3b
       -0.07278078 -0.08448268 -0.050515052 0.0058431155
000100 1b 81 ae bc c5 b2 08 3e ff 54 f0 3c dc 79 fc 3d
       -0.021301797 0.13349445 0.029337404 0.1232793
000110 5d 20 90 3d 8e 93 99 bd f6 bd d1 3c 52 77 ab bd
       0.07037423 -0.07498847 0.025603276 -0.08372368
000120 d5 d5 e8 3d 21 89 0a 3e fd f5 11 be 68 c9 d9 bb
       0.1136891 0.13528873 -0.14253993 -0.006646324
000130 34 26 e9 3b a3 e4 c9 3c 20 3c b3 bd 68 79 1c 3e
       0.00711515 0.024645155 -0.08751702 0.15280688
000140 31 e4 a1 3d 7a 62 fa bd b7 a9 2a bc 91 fb b5 bb
       0.07904852 -0.12225814 -0.01041644 -0.0055536707
000150 c0 01 a6 ba 0d fe bf bd db e1 c1 bb 1c 0d 4b 3d
       -0.0012665316 -0.09374628 -0.0059168166 0.04957305
000160 23 7d 9d bd 57 86 df bd 13 be 8f bd c7 54 22 3b
       -0.076898836 -0.10914295 -0.07018676 0.002476977
000170 d5 4f d1 bc 63 d0 35 3d 30 82 50 bd a1 9f 89 bd
       -0.025550762 0.044388186 -0.050905406 -0.067199
000180 b1 d5 b2 3d 11 a8 01 3e d7 d7 0b bd 63 78 91 3d
       0.08732165 0.12661768 -0.034141388 0.0710304
000190 8a a2 b5 3d 25 db a4 bc 70 96 04 3e 7b c0 52 3d
       0.088688925 -0.020124028 0.12948012 0.051453095
0001a0 ce d4 e7 3c f8 f8 c0 bd 15 cf f9 3d 71 71 d0 bd
       0.028299715 -0.09422487 0.12197701 -0.10177887
0001b0 7f 96 09 bd 4d f7 83 3d 97 d3 81 bc 0a f6 cd 3d
       -0.03359079 0.06443653 -0.015847964 0.10056694
0001c0 9b 90 25 bd 8e eb 8d 3d 0e 94 ca 3c 45 e5 1d 3d
       -0.04042111 0.06929694 0.024728801 0.038548727
0001d0 30 df fb 3b d0 84 5b bc 74 87 12 3e 36 b7 82 3d
       0.007686518 -0.013398364 0.14309484 0.06382601
0001e0 fe 27 20 3d b0 e0 7e bd 75 2d aa bc 75 cf 5a bd
       0.03910064 -0.062225997 -0.020773629 -0.053420503
0001f0 86 31 f9 3d b3 fa 10 3d 32 2d 73 bd a0 17 bd bc
       0.12167649 0.035395335 -0.059369273 -0.023082554
000200 1d 4f 73 3d 3a 77 8d bd 4f 51 f9 3d 8c f7 a9 bd
       0.05940162 -0.06907506 0.121737115 -0.08299169
000210 f7 24 a1 bd 29 d5 fa 3c 08 13 b0 3d 92 9f 91 3d
       -0.078683786 0.03061922 0.0859738 0.07110514
000220 83 0c 35 bc 42 8a 7e bd bb 74 b0 3d 99 34 43 3c
       -0.011050346 -0.06214357 0.086160146 0.011914396
000230 1d 17 83 3d a9 99 fd 3d 7c b1 8f 3d 20 c1 69 3d
       0.06400893 0.12382824 0.07016274 0.057068944
000240 df b3 40 bd 22 b0 b3 3d fb 3d 0a bd 63 fb 87 bd
       -0.04704654 0.08773829 -0.033750515 -0.06639745
000250 ef d0 dc bd 94 c2 49 3d cc 1b 98 3d c3 73 77 3d
       -0.107820384 0.04925783 0.07427177 0.060413133
000260 86 b8 89 bd 48 75 d7 3c cb 58 aa 3d 09 84 87 bd
       -0.06724648 0.026301041 0.08317717 -0.066169806
000270 75 a8 14 3c 60 a3 fd bd f9 0e d7 bd 83 c0 1f 3e
       0.009073366 -0.12384677 -0.10500903 0.15600781
000280 bc 60 b5 3c 99 4b ef 3d 88 a8 cb 3c 03 2c 0c be
       0.022140853 0.11684341 0.024860635 -0.13688664
000290 37 f9 db 3d f3 b4 5f 3d 6c 68 02 be ab 4f 81 bd
       0.10740893 0.054615926 -0.12735146 -0.063140236
0002a0 7e b8 a0 39 f8 a3 1a 3d f9 54 da 3d 8b 03 93 3d
       0.00030655036 0.03775403 0.106607385 0.0717841
0002b0 87 48 d6 3b 1d e7 8c 3c 5b 51 4e 3c ca d7 f1 3c
       0.0065394077 0.017200047 0.012592639 0.029521842
0002c0 0a 6f c5 bd 9c be 02 bd 0f 3e 99 3c 61 77 1c be
       -0.0964032 -0.03192006 0.01870635 -0.15279914
0002d0 01 0f 81 bd 9c c4 9f 3d 86 b7 dd bd 33 b5 49 3c
       -0.0630169 0.07801172 -0.1082602 0.012311268
0002e0 02 11 02 bd 1c 8f 2a bb f5 31 10 3e de 04 13 be
       -0.0317545 -0.0026025241 0.14081557 -0.14357325
0002f0 1e 7c 24 3c 13 e7 be bc 64 2b 15 bd d1 a1 84 3d
       0.0100393575 -0.023303544 -0.036418334 0.064761765
000300 e5 6d 9e bc 83 8c a0 bd 0d e2 9d bd 72 16 91 bd
       -0.019339511 -0.078393005 -0.077091314 -0.07084359
000310 89 31 cc 3d 98 c7 4c bd 15 14 0f 3e a2 ca 15 3e
       0.099703856 -0.049995035 0.13972504 0.1462808
000320 93 7e 96 3b fc 3e 78 bc 21 57 53 3d ca 47 0e 3e
       0.0045927255 -0.015151735 0.051596764 0.13894573
000330 39 a3 95 3d 44 5e c9 bd f2 02 94 bd ab b7 bc bc
       0.07306523 -0.09832433 -0.07227124 -0.023036798
000340 d7 30 a6 3d 68 4f 03 be 68 77 ef 3c 60 04 05 3d
       0.08114784 -0.1282326 0.029231742 0.032474875
000350 41 b5 ab 3c 8b 5f 40 bd f3 3f 91 bd 2e 2a c6 bd
       0.020960452 -0.046966117 -0.070922755 -0.09676014
000360 ea 5d 6d bd af 70 d4 bd a9 af ad 3d fe 92 11 3d
       -0.05795089 -0.10373055 0.0848077 0.035540573
000370 15 a2 7f 3d 3f 06 ef 3d f8 df d3 bd 2b 6c 5a 3d
       0.062410433 0.11671113 -0.10345453 0.053325813
000380 fd 2e 8e bd 38 66 54 3c fc 4c a9 bd 3a 0f ad bc
       -0.06942556 0.012963824 -0.08266637 -0.021125425
000390 54 2e 3a bd 01 bd bc bd fe da d1 3d db 9e ba 3d
       -0.04545434 -0.09215737 0.102468476 0.091123305
0003a0 b6 43 05 3d 24 bc 01 3c 16 44 0b 3e 18 d4 58 3d
       0.032535277 0.007918391 0.13600191 0.052936643
0003b0 dd 35 4b 3d 01 00 0b 3e 77 93 35 3d bd 32 8d bd
       0.049611915 0.1357422 0.044330087 -0.06894443
0003c0 7f 5c 0b 3e 24 25 86 bd 11 ec 0f 3d 4b fb da 3d
       0.13609503 -0.06550053 0.03513724 0.106924616
0003d0 86 cb 9a 3d 0a d2 89 3d 49 7b c5 bd 18 24 c1 bc
       0.0755835 0.06729515 -0.096426554 -0.023576781
0003e0 53 6c d3 3d 46 68 bb 3d 87 1a 9d bd 5b 6f 3f 3d
       0.103233956 0.09150748 -0.07671075 0.046737056
0003f0 47 f1 cd bd 14 d8 12 be 8c 84 38 bd 2e e0 a0 bc
       -0.100557856 -0.1434024 -0.04504828 -0.019638147

bias_hh_l0 f4 [256]
000000 49 49 52 bd 7f 5b de 3d 4f 5d e0 3c 7f 94 87 bc
       -0.05133942 0.10857295 0.027388243 -0.0165503
000010 c4 d9 b0 3c 12 d0 16 bc 56 6e db 3d fa 80 8d bd
       0.021588214 -0.009204881 0.10714404 -0.06909366
000020 8c 20 40 3d 24 27 c4 3b e6 8a 4b bd 20 10 01 3e
       0.04690604 0.0059861112 -0.04969301 0.12603807
000030 23 50 72 3d 0d 34 ae 3d b1 2e b4 bd f1 49 18 3e
       0.059158456 0.08506022 -0.08797968 0.14871956
000040 fa df 51 3d 1a ad a9 3c 7c d7 59 bd 22 2c 1e 3c
       0.05123899 0.020712424 -0.053184018 0.009654077
000050 49 6b b4 bd 59 fa 0b 3e 67 1c 81 bd 49 ce 29 bd
       -0.088095255 0.13669719 -0.063042454 -0.041456494
000060 a5 4d 38 bc b5 e6 87 3d 25 fd 61 3d dc ba 9c 3d
       -0.011248981 0.06635801 0.055173058 0.07652828
000070 33 42 da bd f8 c0 e7 3d 22 7b 2c 3d 35 1c 7d bc
       -0.10657158 0.11316103 0.042109616 -0.01544862
000080 a7 79 76 3d e8 39 ea 3d 24 e7 14 bd c8 b6 1a 3e
       0.06017461 0.11436826 -0.036353245 0.15108788
000090 5a 3e 04 3e 99 7e b2 bd 99 b0 8f bb 50 45 8c 3b
       0.1291441 -0.08715553 -0.0043850658 0.0042807236
0000a0 bc 25 1f 3e 6f 3e ac 3d 4a 6d 8a bc bf 73 08 3d
       0.15541738 0.08410346 -0.016897816 0.03331351
0000b0 6c 02 c5 bd 04 b2 b7 3d e6 9f 00 be ea 15 10 bd
       -0.096196026 0.08969501 -0.12560996 -0.03517715
0000c0 8c 8b 88 3d bf bf 65 bb ab fe b6 3d a0 6f ee 3c
       0.066672415 -0.0035056917 0.08935293 0.029105961
0000d0 d5 55 73 bd 04 db 55 bb c4 be 1c bd c2 20 ec bb
       -0.059408028 -0.0032631764 -0.038267866 -0.0072060535
0000e0 12 6d ac 3d d6 a3 ab bc 97 e1 9c 3d 7e 55 ea bc
       0.08419241 -0.020952147 0.07660215 -0.028605219
0000f0 89 be 93 3d 59 9a ff bd 9c c5 11 3e 5b 96 1a 3d
       0.07214076 -0.12480611 0.14235538 0.037741046
000100 48 8d b4 3d 01 52 da 3d 15 b4 05 3e 56 91 04 3e
       0.0881601 0.10660172 0.13056977 0.12946066
000110 77 1d 12 3e 69 cf 8e 3d 46 15 a1 bd 98 f7 e4 3d
       0.14269052 0.06973154 -0.07865386 0.11180037
000120 79 a4 6f bd 8c 3d df 39 0a 14 c6 bd 91 c9 9e bd
       -0.058506463 0.0004257973 -0.09671791 -0.077532895
000130 8e 82 ff bd 79 ed 27 bc 6d 9e 58 bc f7 d6 00 3e
       -0.12476073 -0.010249489 -0.013221365 0.12582003
000140 ac 82 49 3d 32 5b 92 3d a3 2f f3 bc 99 c2 13 bd
       0.049196884 0.071463004 -0.0296858 -0.036074255
000150 83 cf f6 3d b6 13 4a bd 65 02 06 3e 44 fc eb bd
       0.120512985 -0.049335204 0.13086851 -0.11522725
000160 8f 28 09 3e 57 f4 68 bd b9 d5 a6 bd bd df 8c 3c
       0.13394378 -0.056873646 -0.08146233 0.01719653
000170 e9 7e 77 3d 7a fb 89 bd f4 d8 68 3d b9 ec b3 bd
       0.060423765 -0.067374185 0.056847528 -0.08785386
000180 28 57 1c 3d 4a 47 c6 3d 13 9c 87 bc 2d d3 0d 3e
       0.038169056 0.09681566 -0.016553914 0.13850088
000190 9c 18 82 bd 39 01 90 bd f7 e9 81 3d 48 bf 85 3c
       -0.0635235 -0.07031483 0.063434534 0.016326562
0001a0 0f a9 66 bd 88 d1 df 3d ae e9 1f bc 9e f2 c3 3c
       -0.05631357 0.10928637 -0.009760303 0.0239194
0001b0 04 18 01 be ea af eb 3d 3b 92 b5 bd 94 2e a9 bd
       -0.12606817 0.11508162 -0.08865782 -0.08260837
0001c0 86 d0 89 bd 61 c3 45 3d 5c a7 41 3d c2 b8 77 bd
       -0.06729226 0.04828203 0.047278747 -0.060478933
0001d0 c7 b0 c0 3d fb fd a1 bd eb fc 6b bd 29 79 99 3d
       0.094087176 -0.07909771 -0.05761425 0.074938126
0001e0 67 6d 07 3d 23 f4 a1 bc be fe 20 3d 07 52 1b 3e
       0.03306332 -0.019769734 0.03930544 0.1516801
0001f0 88 1a b9 3d e1 e0 fb 3c b9 76 60 bc b6 4f ce 3d
       0.090382636 0.030746879 -0.013700181 0.100737974
000200 88 83 9e 3d f2 37 0e be f8 3b 5c 3c 04 03 6f bd
       0.07739931 -0.13888529 0.013442032 -0.058352485
000210 e0 fb 1f be 94 21 cb bd 16 58 4c 3d 55 20 de 3d
       -0.15623426 -0.09918514 0.049888693 0.108460106
000220 c9 0d ec 3d 2a 25 1f 3e 12 f4 c1 bc 86 64 a8 3d
       0.11526067 0.1554152 -0.023675952 0.08222298
000230 05 d2 bb 3c 49 a4 c1 3b 09 4d 2e 3d 3c 2f 72 3d
       0.022927294 0.005909477 0.042553935 0.059127077
000240 15 21 9b bd ee b9 8c bc df 11 b4 bd f7 33 d9 bd
       -0.07574669 -0.017178502 -0.08792471 -0.10605615
000250 64 1d 04 be f3 b9 1e be a5 d5 1b be be b2 5a bb
       -0.12901837 -0.15500621 -0.15218218 -0.0033370699
000260 c1 78 20 be 0a fd f1 bc 44 fe df 3d 21 ba dd bd
       -0.15671064 -0.029539604 0.10937169 -0.10826517
000270 4e 47 67 bc e2 f0 a0 bd 83 91 52 bd 17 50 0e 3e
       -0.014116121 -0.07858445 -0.051408302 0.1389774
000280 ed f9 18 be d3 21 2c 3d 2a 82 47 bd 7a 14 16 3d
       -0.14939089 0.042024445 -0.04870812 0.03664062
000290 52 70 25 3d 99 78 a4 3d b8 4f 80 3d cb 89 a5 3d
       0.04039032 0.08030815 0.06265205 0.080829225
0002a0 51 83 14 3e aa 43 1f bd 2b 29 80 bd a5 65 08 bd
       0.14503218 -0.03888289 -0.06257852 -0.03330006
0002b0 b8 01 d4 3d 05 c4 fa bd 00 d2 80 3d ca 1b fc 3d
       0.1035189 -0.12244419 0.06290054 0.12309988
0002c0 c1 82 63 bd 1d 31 dc 3d 9f 4f 06 3e e7 39 78 3d
       -0.05554462 0.10751555 0.1311631 0.060602095
0002d0 02 36 1f be 5c 52 da 3d 49 f8 59 bc 3c 1a 9a bd
       -0.15547946 0.1066024 -0.013303825 -0.07524535
0002e0 b8 a1 91 bc 4e b5 df 3d 37 e2 01 3e d8 3e 1b bd
       -0.017777309 0.10923253 0.1268395 -0.03790173
0002f0 dc 8e 0d be 8d 87 d4 3c 86 85 13 3e 5a 0f 18 3d
       -0.13824028 0.025943542 0.14406404 0.037124015
000300 b5 4e fd bc 11 00 59 3d d5 9b 03 bc ca a7 3a 3d
       -0.03092132 0.05297858 -0.008032759 0.045570172
000310 72 7b 4d 3d e4 0c 8b 3d 2b 1b 39 bd ba 56 b6 bd
       0.050166555 0.06789568 -0.045191925 -0.089032605
000320 a7 cf 86 3d e6 df a0 bd 41 b1 53 3d 7c 8c a7 bd
       0.06582575 -0.07855205 0.051682714 -0.08181092
000330 be 18 ba bc 49 9e 31 3d 9a 10 69 3d c7 cd 8a bd
       -0.022716876 0.043363843 0.056900598 -0.0677753
000340 e9 7e 8d bd b1 ee be 3d a9 24 58 bd a9 18 0c bd
       -0.06908972 0.093228705 -0.052769337 -0.034203205
000350 3d 83 13 3e 8e 8e cc 3d da 17 a2 3d 2b 2e 20 bd
       0.14405532 0.09988128 0.079147056 -0.03910653
000360 ba 8d 82 3d f7 55 9d 3d 24 38 f4 3d 39 47 c0 3d
       0.063746884 0.07682412 0.119247705 0.09388585
000370 51 88 d8 3d 62 6d 0e 3e be 5b cd bd 32 2a 0f 3e
       0.10572875 0.13908914 -0.10027264 0.1398094
000380 78 13 d1 bd e7 c9 9c bd 46 85 b1 3d b8 14 75 3d
       -0.102087915 -0.07655697 0.08667998 0.059834212
000390 89 9d b9 3c 53 fd 14 b9 0e b6 a9 bd 75 a9 6c bd
       0.022658126 -0.0001420875 -0.08286677 -0.057778794
0003a0 c3 97 d5 bb f1 bf 7f 3d 69 2f ef 3d e8 9f c0 bd
       -0.0065183355 0.06243891 0.11678965 -0.094055
0003b0 32 da e9 bd c2 bf ed 3d b7 40 a6 bb 9e a5 7b 3c
       -0.114185706 0.116088405 -0.0050736326 0.01535931
0003c0 79 19 de 3d d4 fa ac bd a7 73 7d 3d 02 61 13 3e
       0.10844702 -0.08446279 0.061877873 0.14392474
0003d0 78 ab 94 3d 15 4c c7 bd 37 5f e4 3d 44 71 c3 3d
       0.072592676 -0.09731308 0.11150973 0.09543088
0003e0 27 8e b5 bd 8c ab af 3d 48 a3 62 bd 0b 79 14 bd
       -0.08865004 0.08577642 -0.0553315 -0.036248248
0003f0 72 8f 27 3d 2d 1e 39 bd 1c 9f 08 3e 98 07 9d bd
       0.040908284 -0.045194793 0.13341945 -0.07667464

weight f4 [2, 64]
000000 94 72 e3 3d 8f cf 83 3b fc 9d 2a 3c fd 46 d9 bc
       0.111058384 0.0040225456 0.010413643 -0.026523108
000010 7b b6 86 3d 41 60 d6 bd 23 fe 8e 3c f7 13 9d 3d
       0.06577774 -0.10467578 0.017455166 0.076698236
000020 b8 36 d3 3d ac 30 90 3d 04 c8 e0 bc d4 ee fb 3d
       0.10313171 0.070405334 -0.027439125 0.12301412
000030 f8 40 23 bc 23 ab 13 bd 5d 8c f0 3c 7b a6 a9 bc
       -0.00996422 -0.03605188 0.029363805 -0.020709267
000040 da 82 84 bb 6b 67 2a bd a6 3f 9b 3c d5 81 32 3d
       -0.004043919 -0.041602533 0.018951248 0.04358085
000050 51 af fc bd 7d 2f d9 bd 76 a2 04 be 34 de 87 bd
       -0.123381265 -0.10604761 -0.12952599 -0.06634179
000060 39 11 04 be 56 a4 fd bd e0 a5 e7 3d 33 5e b0 3c
       -0.12897195 -0.1238486 0.11310935 0.021529293
000070 9d 4d cd 3c ea 99 62 bc 27 20 32 3d 99 bd c1 3d
       0.025061423 -0.013830641 0.043487694 0.09459991
000080 ad 9c ec 3c c3 66 dc 3d c8 57 f3 bd 40 03 ec bc
       0.028883303 0.10761788 -0.11881977 -0.028810143
000090 06 2c 84 3d 02 27 98 bd c9 04 24 bd 08 05 e1 bd
       0.06453709 -0.07429315 -0.040043626 -0.10987288
0000a0 e7 1e ef bc 2d 2a 86 bb c2 70 4c 3d 34 e7 9a 3d
       -0.02918954 -0.004094383 0.04991222 0.0756363
0000b0 7c 30 81 bd b6 3f b1 bd 48 71 9d bd 93 83 08 3e
       -0.06308076 -0.0865473 -0.07687622 0.13331442
0000c0 5a 0a 0f be 1f cb ab bd 2a 02 08 3e e7 73 9a bd
       -0.13968793 -0.08388352 0.13282076 -0.07541638
0000d0 97 0a 99 bd 89 39 b2 b9 d0 86 2d bd df e5 b8 3d
       -0.07472723 -0.00033993673 -0.042364895 0.090282194
0000e0 c4 38 12 3d a2 69 10 bc 7c 42 00 3d 37 70 e9 bc
       0.035698667 -0.008814247 0.031313404 -0.028495891
0000f0 85 09 01 be 86 75 3a bd 72 55 70 3c f5 e9 d2 3d
       -0.12601288 -0.045522235 0.014668809 0.1029853
000100 c4 e1 92 bd 69 7f 20 3d 52 4b f4 bd 14 dd 23 3d
       -0.071719676 0.039184008 -0.11928429 0.04000576
000110 d6 c4 17 3e fe ea cb 3d 7c dc 31 bb 84 ed 44 bc
       0.1482118 0.099569306 -0.0027139476 -0.012019519
000120 7d 65 ab bd 50 37 99 3b 8d ae 8d 3d b3 68 4b 3c
       -0.08368967 0.004675783 0.069180585 0.012415099
000130 d8 f0 d4 3d 4d 8d aa bc 65 c8 7d 3c 2e 40 b0 bd
       0.103975 -0.02081933 0.015489672 -0.08605991
000140 d5 a8 88 3c 90 bc c0 3d 35 ed d2 3d c1 fe 2f bc
       0.016682068 0.094109654 0.1029915 -0.01074189
000150 43 0e ec 3c 11 8c 08 3d ac d0 4e bd 78 86 e0 3b
       0.028815394 0.033336703 -0.050491974 0.0068519674
000160 39 f6 7a bb ba 7e bf 3d 1c a0 3e 3d 1e 60 a2 3d
       -0.0038293733 0.09350343 0.04653941 0.07928489
000170 c5 58 4f bc 93 28 46 3d 91 a9 1d bd f4 8a df bd
       -0.012655442 0.04837854 -0.03849179 -0.10915175
000180 09 c4 9b 3d d0 ea ca bd c2 8e e7 3d 7e 66 83 3d
       0.0760575 -0.09908068 0.11306526 0.06416033
000190 31 6c bd bc b6 59 03 3d 10 18 92 3d 30 cf cf 3d
       -0.023122879 0.032067977 0.07133496 0.1014694
0001a0 d1 19 74 bd 0e c2 c4 3c 82 47 0a bd 94 91 80 bd
       -0.059594933 0.024018314 -0.0337596 -0.06277767
0001b0 7c e7 9b bd 52 ae 0e 3e 9e 58 80 bd 32 63 80 3d
       -0.076125115 0.13933685 -0.062669024 0.0626892
0001c0 11 60 25 3d 2e cb 1b bd 04 41 7c 3c de 72 94 3d
       0.04037482 -0.038035564 0.01539636 0.07248472
0001d0 f9 d5 48 3d d8 fd ca 3d 02 35 f9 3d 47 b3 d5 3d
       0.049032185 0.09911698 0.121683136 0.10434585
0001e0 54 38 a6 3d c5 6c b7 3c ff fa 46 bd 33 f2 b2 3d
       0.081162125 0.022390733 -0.048579212 0.08737602
0001f0 5f 0b d9 3d 57 e1 41 3c 9e 30 ef bd cf 72 37 bd
       0.10597872 0.01183351 -0.11679195 -0.044787224

bias f4 [2]
000000 1a df 01 bd 7a 9e a7 bd
       -0.031706907 -0.08184524
