t2_lstm_fasttext.pt (torch, 379362 bytes, 6 tensors)

weight_ih_l0 f4 [256, 300]
00000000: 4dfc b0bd bd47 d83c 2d0f ccbd ce4b a0b9
00000010: fbd9 96bd 7b4d cd3a 364e 6d3d e983 96bd
00000020: d039 52bd ce5f 303d 1329 d2bd 529b 223c
00000030: 43ac 033e 7f2a 6bbb 3863 99bb 866d e23d
00000040: d262 58bd f278 f0bd 4845 9fbd 91fb b13d
00000050: 6aa9 10bd 1979 a43d b4aa 9f3d f9b5 d33d
00000060: 6309 80bc 66c0 363d b270 01be 3cf8 3d3c
00000070: 9daf 363c af4e 423c dd25 9cbd 5f9d 9abd
00000080: 0f5a d03d 01ff 2c3d 1982 9b3d 369b debd
00000090: ba19 e3bc 7bc6 3d3d 2eb2 e83d 35b3 403d
000000a0: d3a2 dcbd 0bbe df3c af54 e6bd e3c6 6fbd
000000b0: c9c4 cbbc 336f 81bd a3b2 c03d bf10 bebd
000000c0: 85b1 18bd cdcb e73d 0ca8 16bd 8520 c13d
000000d0: d23b d73d 47c1 55bd caed de3c a6aa 873d
000000e0: e8e2 933d 7b6d 0b3e 87a4 cabd da05 9b3d
000000f0: 009a a2bd 3c5a e83d b898 2ebd f283 03be
00000100: a09b b5bd 8a4e 26bd 1a30 ae3c 5caf 49bb
00000110: cdf6 f13d 0321 2d3d e666 ddbd a186 e8bd
00000120: a700 403d 6008 eabd fc08 313c d45d dabd
00000130: 0d85 2cbd c975 b33d dd56 75bd ab77 be3d
00000140: 0b4a 9fbc 52a9 09be f910 01bd f5fe b73c
00000150: 6083 983d 0fc0 d8bd 4e3c 03be 5dff ba3d
00000160: e6f3 e2bd 0088 b53d c0a4 ecbc 9633 bf3c
00000170: 1964 a6bd 2e0e e5bd d462 80bd d53b b63c
00000180: 0efa 0a3e 61aa a7bc 4ffa b33c 7fa6 d0bc
00000190: 1fb8 cc3b a8fb 44bd 500c 843c acaf 74bd
000001a0: e7bb d73c 6c0e 06be be5c 8c3c 5e9f f3bd
000001b0: e55f 393d ce96 d9bd 9165 9c3c 7423 efbd
000001c0: 0b73 923d 017e 733d 9860 433c 1874 493d
000001d0: ffc2 a9bd 8585 bdbd dc35 0bbe 3a32 28bd
000001e0: d92d cb3d 0ee7 ab3d d926 d23d e0ea b2bc
000001f0: 9446 803c 337a bfbb c288 023e 8e30 683d
00000200: 07cb f0bd 1a98 d73c 1a08 2ebc b433 d03c
00000210: 2fc6 2c3d 3708 1f3c c761 c93c 54c7 96bd
00000220: e315 edbd 9c2d 88bd beef 953d 3b36 d0bd
00000230: 578e 57bc 4a12 8f3d ef21 93bd 930c 123c
00000240: 1e29 c73d 6c92 e1bd c288 c3bd 2ccf 7dbd
00000250: 3e71 7b3d 4bac 343d ce34 8abd eb5d cfbd
00000260: c7b6 223d a8a7 62bd de78 b63d ccd8 953d
00000270: 3d39 b2bd a758 303b e22f 4dbc dde7 56bd
00000280: 3264 9ebc 4725 ecbc 8485 f6bc 61da 75bc
00000290: 4110 a4bd d39f a03d b414 a73d c552 debd
000002a0: 1d91 0fbe 101a b83d 7fc1 b53d 8ad6 b13d
000002b0: 665f 8dbc c91d ecbd 4744 6fbd 79c1 0a3d
000002c0: 0cbd ecbc 83b8 85bb 2a15 693d 911a 0f3c
000002d0: 4571 60bd c950 0f3e 8319 433d d480 6c3d
000002e0: 485b 03bd 0b0f 3e3d abe6 653d 4ef8 50bc
000002f0: 89e2 963a d4ef a03d a979 c1bc 6522 293d
00000300: d4a9 4cbc 1586 febd ff2b c0bb 74d4 ba3d
00000310: 5154 31bd caa0 503d 3a12 03bc dccd 9dbd
00000320: 9755 b33d 36d3 813d 6545 32bd edcc e9bc
00000330: 435f ec3d e410 46bc 9d29 2e3c b1fc 36bc
00000340: cc8c aabd e448 b13c f69d de3d 14b1 eebc
00000350: 4dd9 a03d 74f6 503d 6b95 dabd 7c20 633d
00000360: 82c8 a53d fba0 e2bd ac1c 543d ac94 1cbc
00000370: 97c4 9cbd 9bc4 a3bd 2c0e 343d 79d7 d03c
00000380: f11e 4a3d ad21 0ebc 6c82 ae3c a348 4a3c
00000390: 6510 acbd aa76 babd d62f a93c aa8f d93d
000003a0: 679e 723d 9b2b 043e 1259 afbd 62d4 923d
000003b0: dae1 b63d cad8 f83c ffd7 933d f139 023d
000003c0: 0cde 8a3d 8791 98bd 2596 00be 173b 6ebd
000003d0: 9449 b43d 5a86 8dbd 1ed2 bd3d b954 653c
000003e0: b7fc 00bd 4b61 9f3d 989c d7bd 1cd6 83bd
000003f0: 19a6 63bd f565 a13d b00a bc3d 8e95 47bd
-0.086418726 0.026401395 -0.09963832 -0.00030574057 -0.07365795 0.001566335 0.057935916 -0.073493786
-0.051324666 0.043060116 -0.102617405 0.009924727 0.12858681 -0.0035883484 -0.0046810172 0.11056046
-0.052828617 -0.117418185 -0.07776886 0.086905606 -0.035317816 0.0803091 0.07796231 0.10337443
-0.015629476 0.04461708 -0.12640646 0.011594828 0.011150268 0.01185958 -0.07624409 -0.075495474
0.10173427 0.04223538 0.075931735 -0.10869448 -0.027722228 0.046331864 0.1136211 0.047045905
-0.10773244 0.0273123 -0.11246621 -0.058539283 -0.024874108 -0.06320038 0.09409072 -0.09280538
-0.03727867 0.11318169 -0.036781356 0.09430031 0.10509457 -0.052186277 0.027212996 0.066243455
0.07221013 0.13615982 -0.09894662 0.075694755 -0.079395294 0.11345336 -0.042626113 -0.12843302
-0.08867574 -0.040602244 0.021263171 -0.0030774688 0.11814652 0.04226781 -0.10810642 -0.113538034
0.046875622 -0.11427379 0.010805365 -0.106624275 -0.042119075 0.087627 -0.059897292 0.093001686
-0.019444486 -0.13443497 -0.031510327 0.02246044 0.07446933 -0.10583507 -0.12815973 0.09130738
-0.11081676 0.088638306 -0.028887153 0.023340028 -0.08124561 -0.11184345 -0.0626885 0.022245327
0.13571951 -0.020466985 0.021969942 -0.025470017 0.006247535 -0.04809156 0.016119152 -0.059737846
0.026334716 -0.13091439 0.017134067 -0.11895631 0.045257468 -0.10624467 0.0190914 -0.11676684
0.07150849 0.05944634 0.011924885 0.04918298 -0.08289146 -0.092539825 -0.13594764 -0.041063525
0.09920854 0.083936796 0.10261316 -0.021840513 0.015658654 -0.0058434247 0.12747481 0.05668693
-0.117574744 0.026317645 -0.010622049 0.025415279 0.04218119 0.009706548 0.024582757 -0.073622376
-0.1157644 -0.06649324 0.07321118 -0.10166594 -0.013156495 0.0698591 -0.07184207 0.008914131
0.09724639 -0.11014256 -0.09547569 -0.061965153 0.061387293 0.044109624 -0.06748353 -0.10125335
0.03972509 -0.05533567 0.08909772 0.07316741 -0.087023236 0.002690831 -0.012523623 -0.052467216
-0.019334886 -0.028826369 -0.030092962 -0.015005679 -0.08010913 0.07842984 0.08158246 -0.10855631
-0.140202 0.08989346 0.08874797 0.08683498 -0.017257404 -0.115291186 -0.058414724 0.033875916
-0.028898738 -0.0040808334 0.05690495 0.008734361 -0.054795522 0.13995661 0.04763175 0.057740048
-0.032069474 0.046401065 0.056128185 -0.012754513 0.0011511605 0.078582436 -0.023617582 0.041292567
-0.012491662 -0.12427918 -0.0058646197 0.091225535 -0.0432933 0.05093459 -0.007999951 -0.0770528
0.08756559 0.063391134 -0.04352321 -0.028540099 0.11541607 -0.012088988 0.010630039 -0.011168645
-0.08327636 0.021641202 0.108699724 -0.029137172 0.07853947 0.051016286 -0.106730305 0.0554509
0.080948845 -0.11065861 0.051785156 -0.0095569305 -0.07654684 -0.07996484 0.043958828 0.02549337
0.049345914 -0.008675021 0.021302424 0.0123464195 -0.084015645 -0.091046646 0.020652693 0.10623105
0.059233095 0.12907259 -0.08561911 0.07169415 0.089297965 0.03037681 0.07218932 0.03179354
0.06780633 -0.07449632 -0.12557276 -0.05816182 0.088030964 -0.06910391 0.09268592 0.01399725
-0.031491008 0.07782229 -0.10527915 -0.064373225 -0.055578325 0.07880775 0.09181726 -0.04872661

weight_hh_l0 f4 [256, 64]
00000000: 98c5 7a3d 9ed0 91bd 7e95 123e 40d5 17bc
00000010: 2d71 ad3c fb08 d3bc 513b 0bbe 7a0c c5bb
00000020: bd3a 9bbd 83d6 a93d 1a5b c73c f5ad 6fbd
00000030: b938 dabc 00ed 6cbc 79a4 02be 2e81 94bd
00000040: 399d 27bd 3aa2 9d3d 62c8 01be b9c0 c0bd
00000050: 5e9b fabd 76cd 193d 02c9 f7bc daa7 83bc
00000060: 35a5 0ebd d3f1 20be 1dd8 913d 7fd4 ac3d
00000070: bb2b 12bc c6bc bb3d 3fcb 10be 64ed b5bd
00000080: 49b7 50bd 2e7d 893d c684 0d3d 660a efbc
00000090: 9dec f73c 40ab 14be 6dbd 1d3c 2b59 fa3d
000000a0: 1cd9 45bb 300c edbb 0168 c93c 3186 4a3d
000000b0: 7596 81bc e15d 89bc aa10 cb3d 5f78 31bc
000000c0: d700 debd e625 ae3d e0b5 913d ce71 0e3e
000000d0: 3ac0 683d fa0a 9ebd 5cf7 d23d 3e27 773d
000000e0: 35b9 90bb 96ae 61bd 02d1 c2bd 235c 22be
000000f0: 5efc af3b 3e67 183e 1aad 6cbd 56c8 9c3d
00000100: c16e 13be f78e 7fbd 39d2 063e ab75 a03c
00000110: 47ee e6bd 1ccf 0b3b bc2c cebd db35 9b3d
00000120: c75e 023d 4a44 60bc 4531 acbc 8654 4f3d
00000130: 34a0 aebd eaf6 febd cf9b d13c 1af6 cfbb
00000140: d291 a03c d49a 11be 1a21 273b 30e5 363d
00000150: b3e6 39bc 0965 67bd 5c64 fabc 5f62 96bd
00000160: f832 9c3d b6a5 db3c fb47 293c 206f 14bc
00000170: e188 8c3d e69a 18bc d98f bf3d e573 d6bd
00000180: 673b b23d 94f1 cb3d b039 e33d 68a2 78bd
00000190: 2ffc 2cbd 034f a13d b2ee cdbc 165e d83d
000001a0: 2e85 8cbd 6c93 563c d2f5 c7bd 8150 86bc
000001b0: 002d a4bc d7fe 98bd 6541 66bd 5ebf 9abd
000001c0: 540a 19be 2edf a3bd e456 ee3c 3046 113d
000001d0: 0ccd b73d ea61 bf3d 645d febb 0874 f4bc
000001e0: b914 803d 37db adbd 1534 62bd 81a8 0ebe
000001f0: fd24 2b3d dd58 0c3e 5935 f63d 9aa4 dcb9
00000200: f0a5 9dbd 7658 cdbc 6000 1fbc 9b23 503b
00000210: 5a6f 93bd d03c 823d 6c6e 453d be05 cf3c
00000220: 4916 d0bd 6ee2 44bd 77f0 b0bc 30bc fc3c
00000230: 84e3 1d3e 5694 b3bc f777 63bd 317f 05bd
00000240: e2df 663d c38c 8fbd 0516 d1bd 3139 2cbc
00000250: cd2b a13c 36a0 fbbb 3b58 4fbd 570f d6bd
00000260: 4cbf f5bc 57a3 123d bb6d bbbc b39d abbd
00000270: 94f6 8b3d fa2a 06be e152 14be 2a6a 17be
00000280: 09d1 55bd 921d 1d3e 5302 b0bc 43e5 a43d
00000290: 1eb1 e1bd 2773 56bd ab50 8e3d 3e88 ba3d
000002a0: da60 9b3d 378c 6a3b b743 2dbd 73f4 99bd
000002b0: 622e 91bd 7149 653c f730 f43d e557 493d
000002c0: 21f8 793d d518 183d a0e8 17be 3958 753d
000002d0: 681b e33d 8d77 de3d 1362 083e 6a43 053e
000002e0: e3ac 063e 11ba bebd 17d1 003e 8d3d a03d
000002f0: 9fac e83c 35f4 0f3e 4eec 45bd e5e6 323d
00000300: e9f5 dabd 9d4a 243e 2546 433d 107f ffbd
00000310: c9a6 cd3c 7fd1 e5bd a310 ffbd c684 67bb
00000320: 9435 ba3d a854 333d 8d17 71bd 9b58 9abd
00000330: f00f e33c 7615 25bd 1ace 1fbe dd68 783d
00000340: 03e2 70bd 1712 8bbb 5cc1 86bc b193 d5bd
00000350: 7073 673d ec54 4d3d 427f cabd b504 b33b
00000360: 74c8 bb3c 455d 533d 2be2 9cbd 996d fa3d
00000370: ec7e d5bd 6d41 933c 8fa3 e8bd 1406 703c
00000380: 75a6 18be d53c 0b3d 403b ef3c ce4b a1bd
00000390: 63c3 b0bd 19f5 963d 821d 8abd 6881 38bd
000003a0: f6b4 143d a09d 373d 0af4 08be 79e4 cfbd
000003b0: be74 343d 860b ea3d 8cde 1b3e 22a7 2bbc
000003c0: 85f0 0dbe 114b e7bd bbb8 13be ebf7 5bbc
000003d0: 56f4 72bd 7357 8a3d fa93 81bd f1cd b03c
000003e0: 1512 183e 9b7a cebd bcf4 da3d 8c14 edbc
000003f0: 336d b2bd a733 8c3d ced0 b43c 9929 d0bc
0.061223596 -0.07119869 0.14314839 -0.009267151 0.02117213 -0.025761118 -0.13596846 -0.00601345
-0.07579563 0.08292868 0.024335433 -0.058515508 -0.026638376 -0.014460802 -0.12758054 -0.072512016
-0.040921424 0.07696958 -0.12674096 -0.09411759 -0.12236665 0.03754946 -0.030247215 -0.016071249
-0.034825522 -0.15717249 0.071212985 0.08438968 -0.008921559 0.09166865 -0.14140032 -0.08883169
-0.050956044 0.06713329 0.03455045 -0.029179763 0.030264193 -0.14518452 0.009627682 0.12224039
-0.0030189222 -0.007234119 0.024585726 0.04944438 -0.015818814 -0.016768398 0.09915288 -0.010831921
-0.10840004 0.08503322 0.07114768 0.139106 0.056823947 -0.07716937 0.10301086 0.06034016
-0.0044166096 -0.05509814 -0.09512521 -0.1585546 0.0053706607 0.14883134 -0.05778227 0.076553985
-0.14397718 -0.0623922 0.13166131 0.019587358 -0.112759165 0.0021333164 -0.10067126 0.075786315
0.031828668 -0.013688156 -0.021019587 0.050617717 -0.0852665 -0.12449439 0.02558699 -0.0063464763
0.019600783 -0.14219218 0.0025501908 0.044652164 -0.011346507 -0.05649284 -0.030565433 -0.073429815
0.07626909 0.026812416 0.010332103 -0.009059697 0.06862045 -0.009314274 0.09353609 -0.10471324
0.08702736 0.09958187 0.110949874 -0.060701758 -0.04223269 0.078763984 -0.025138233 0.105648205
-0.068613395 0.013096672 -0.097636834 -0.01639581 -0.020040989 -0.07470482 -0.05621471 -0.07556032
-0.14945346 -0.080015525 0.029094167 0.035467327 0.089746565 0.093448475 -0.007762598 -0.029840484
0.062539525 -0.084890775 -0.05522545 -0.13931467 0.04178332 0.13705774 0.12021894 -0.00042084308
-0.07697666 -0.025066596 -0.009704679 0.0031759504 -0.07198973 0.06359255 0.04820101 0.025271293
-0.101605006 -0.048067503 -0.021599038 0.030851454 0.15418822 -0.021921318 -0.05553433 -0.032592002
0.056365855 -0.0700927 -0.10209278 -0.010511682 0.019674206 -0.0076790107 -0.050621253 -0.104521446
-0.029998444 0.035800304 -0.022879472 -0.08379688 0.068341404 -0.13102332 -0.14484741 -0.14786592
-0.052201305 0.15343311 -0.021485483 0.08051541 -0.110201105 -0.05235591 0.0694898 0.091080174
0.07586832 0.003578914 -0.042300906 -0.07517328 -0.07088925 0.013994561 0.11923402 0.04915609
0.06102765 0.037133057 -0.14834833 0.05989859 0.11089212 0.10862646 0.13318662 0.13013998
0.13151889 -0.09312833 0.12579761 0.0782424 0.028402625 0.14058001 -0.04832106 0.04367723
-0.10691435 0.16044088 0.047674317 -0.12475407 0.025103943 -0.11221599 -0.12454345 -0.0035326942
0.090922505 0.043781906 -0.05886035 -0.075364314 0.02771756 -0.04030367 -0.15605965 0.06064688
-0.05880929 -0.0042441 -0.016449623 -0.104285605 0.056506574 0.050129816 -0.09887554 0.0054632076
0.022922732 0.05160262 -0.076603256 0.12227935 -0.10424599 0.017975533 -0.11359321 0.014649887
-0.14907248 0.03399356 0.029203057 -0.07875787 -0.08631017 0.073709674 -0.067439094 -0.045045286
0.03630539 0.044828057 -0.13374344 -0.101509996 0.044056647 0.11427979 0.15221614 -0.010476859
-0.13861282 -0.11293615 -0.14425938 -0.0134258075 -0.05931505 0.06754961 -0.063270524 0.021582576
0.14850648 -0.10081979 0.10691211 -0.028940462 -0.08712234 0.068457894 0.022072222 -0.02541046

bias_ih_l0 f4 [256]
00000000: 2377 c03d 9929 a6bd c6c4 783d 2675 103e
00000010: 48f2 b6bd f207 793d 1110 153d d2d4 5fbd
00000020: 33d2 5ebd 3fa9 0fbe 67c0 afbc b95f 6e3d
00000030: 7cf8 cbbd 6b5e 98bd b73b bb3d 0cbe 9c3d
00000040: 056f 1d3e 6763 00bc fb2e 55bc 03f2 ba3d
00000050: 97e8 ad3d 8d4c f8bd 11c3 0f3d 38c6 343d
00000060: 80a9 183d 4a54 aa3d b0e6 823d c4ed 6bbd
00000070: 8d9c e13c 07e4 a33d 0666 c53d a66e 9f3d
00000080: b339 1b3e 914b 0138 4f1a b73d 676d e03d
00000090: 6dcc 17bd b29f cb3d 3ec1 6bbd 96bd 9f3d
000000a0: 2cc4 14bd 3e16 8f3d b96c 9bbc fd62 fabd
000000b0: 94e6 a0bd 2093 0bbc ba66 abbd 009a e6bd
000000c0: bf25 febc 49a1 a43d b7cd 9abc 12af 073e
000000d0: 6368 5cbd f382 053e d747 073e b2a1 183d
000000e0: 4e33 b13d 5783 053e 9cfc 64bd 9431 8c3d
000000f0: 990c b3bd 39ba cf3d 8d30 6f3d dd4d c43d
00000100: 5bb1 dc3d c54c 1e3e 780e 9c3b 01a7 a63b
00000110: 5a78 1cba b76c e0bd b64d 183e e125 423c
00000120: 82b4 cb3b 9262 bf3d a689 80bd ed98 7dbd
00000130: 2365 e8bc afdb 07be 18ee 1a3e be7c c6bb
00000140: df4b 6bbd ade0 8a3d 6cd4 ccbd 2908 b53b
00000150: 32f2 e43c 1a82 ffbd e2c6 4b3d 6c9f a23d
00000160: e772 19bd 8d9b f13d 1e2b c53d b671 9abd
00000170: 48e1 8a3d f7cf 4e3d ebcf 093e c699 523d
00000180: 9996 3d3d cd40 903d 5f9e 49bd 6e2e 5bbd
00000190: 7689 e2bd d4aa 033e 26ea 1d3c 2308 01bd
000001a0: 5839 fa3d 742d 503d d823 a53c 8f88 14be
000001b0: de9c 9dbd 3f90 a33d 44c7 a9bc 9aa2 18bd
000001c0: 1bee be3d 426f c5bd 32cf 013e af54 113e
000001d0: b557 67bd 91f9 213d b645 bfbd ca33 1c3e
000001e0: e3b8 813c b744 13bd 0f91 b8bd 41f2 b23b
000001f0: 6c4e 673d a2c0 1cbd 516a f73c 358f b6bd
00000200: 8273 d8bd 57b2 143e d494 f73d d92d e6bd
00000210: 3bb8 b9bd bcc3 6f3c f942 5dbd 6746 a1bd
00000220: 900b be3d 7e7e a23d a3f9 a03d 9f79 10be
00000230: 88aa 94bd 28a3 6a3d 09eb 05be e60f 2bbb
00000240: cc00 963d ccf7 8e3c 64fb 94bd e83f 1e3c
00000250: 5590 89bd 6734 e7bd 0d25 ba3d 7d82 373c
00000260: bcd4 6fbd 5127 f7bd df8e 1a3d db2f 10bd
00000270: 1e1c 543d d6ed d6bd 0fe7 9cbd 1066 1abe
00000280: ae60 f6ba 7d4b 083e 6c1f 733b 2c84 9f3a
00000290: 5007 fbbd 6d5f 7d3d 28be 7fbb 0a23 a23d
000002a0: 8702 143e 2581 173c 4d97 15be 6bee d7bc
000002b0: 28a4 d2bc 6892 0d3e b390 1c3e 8d9a 9bbd
000002c0: 800c f8bd 1522 0bbe 3383 e3bd 460e 673c
000002d0: b9d9 aa3d b53c 143e 951b 663d 31b1 283c
000002e0: 785b 023e 2db7 1abe 31f4 eb3d eb74 9ebd
000002f0: 52be 803d 6b6c 233c adee d53d 574e 353d
00000300: 8582 0dbd 7084 2cbd 5655 f03d 61dd cb3d
00000310: e7fd b7b9 a7ac e8bd b607 f33d 1595 f13c
00000320: 5434 4cbc 2e98 8e3d af73 8fbd 0c8d 263d
00000330: ca89 8bbd 9ed2 95bd 128d 813d 8f94 c1bc
00000340: 0fff eb3d 1f78 68bd 000b 0dbd 7b88 1c3d
00000350: bf9b 953d 15ad e8bd c447 4d3d 6cea e7bd
00000360: 9af4 9d3b 85a1 d83d 273e dfbc 11e5 d2bd
00000370: 1a4c 813d 8ea1 9f3d 8aa1 f13c 9f62 a4bd
00000380: dfbd 813d 4c36 a5bd 40b7 aa3d 110d 0c3d
00000390: 07ab 823d 47e6 f33d d2ad fb3d 3a52 073e
000003a0: bbfb c33d bfba 003d 3d6f 9f3d c130 293c
000003b0: 8f63 ef3d 3641 c03d adbc c93d 04ab 153c
000003c0: a0cd fabc 76a2 b7bb a63b 903d f192 ae3d
000003d0: 4867 a2bc 8f90 673d 9e99 66bd 35b6 be3d
000003e0: 6791 22bd 4950 d1bc 9d7d 0a3d ea19 d53d
000003f0: b629 333c 96bf e93d c749 b4bd ccd8 77bd
0.093977235 -0.08113403 0.060734533 0.14107189 -0.0893293 0.060798593 0.036392275 -0.05464632
-0.05439968 -0.14029406 -0.02145405 0.058196757 -0.09959504 -0.07439884 0.09142249 0.07653436
0.15374382 -0.007836199 -0.013011689 0.09128191 0.084916286 -0.12123976 0.03509814 0.04413435
0.037271023 0.08316858 0.063916564 -0.057599798 0.02754047 0.08002477 0.096386 0.077847764
0.1515873 3.0826373e-05 0.08940565 0.10958367 -0.03706019 0.09942569 -0.057557337 0.077998325
-0.036319897 0.06986664 -0.018972741 -0.12225912 -0.07856479 -0.008518964 -0.08369203 -0.11259842
-0.031023858 0.08038575 -0.01889692 0.13250378 -0.05381049 0.13038234 0.13210998 0.03726358
0.08652364 0.13038383 -0.05590497 0.06845394 -0.08742637 0.10142941 0.05839591 0.09585164
0.10776015 0.15458973 0.004762467 0.0050858264 -0.00059688615 -0.10958236 0.14873394 0.011849851
0.0062165866 0.09344973 -0.06276254 -0.06191342 -0.028368538 -0.13267396 0.15129888 -0.006057351
-0.057445403 0.06781135 -0.10001454 0.0055246544 0.027947519 -0.12475987 0.049750216 0.079405636
-0.037463095 0.11797247 0.096273646 -0.0754122 0.0678125 0.0504913 0.1345822 0.05141618
0.0462862 0.0704361 -0.0492233 -0.053511076 -0.11061375 0.12858135 0.009638345 -0.0315019
0.12217969 0.050824597 0.020158693 -0.14505218 -0.07695936 0.07986497 -0.0207249 -0.037264444
0.09322759 -0.09640361 0.12676695 0.1419246 -0.05648013 0.039544646 -0.09339468 0.15254131
0.015835231 -0.035954203 -0.09012043 0.005461008 0.056471273 -0.038269646 0.030202063 -0.08914033
-0.10568906 0.14521156 0.120889336 -0.112392135 -0.09068342 0.014634069 -0.05401895 -0.07874756
0.09279549 0.07934283 0.078601144 -0.14108895 -0.07259089 0.057284504 -0.1307794 -0.0026102006
0.07324371 0.017452143 -0.072745115 0.009658791 -0.06716982 -0.11289292 0.09089098 0.011200544
-0.05855249 -0.12068046 0.03773391 -0.03520189 0.051784627 -0.10494582 -0.076612584 -0.15077996
-0.0018797123 0.13310046 0.0037097586 0.0012170128 -0.12257254 0.061858583 -0.0039023254 0.079168394
0.14454089 0.009247099 -0.14608498 -0.026358804 -0.025713041 0.13825381 0.15289573 -0.075978376
-0.12111759 -0.1358722 -0.11109009 0.014102524 0.083423086 0.14476283 0.056178648 0.010296152
0.12730205 -0.15108939 0.11521185 -0.07737144 0.06286301 0.009974579 0.104459144 0.044264164
-0.0345483 -0.04211849 0.117350265 0.09954334 -0.00035093652 -0.11361056 0.11866705 0.029490033
-0.012463648 0.0696262 -0.07004487 0.040661857 -0.068133906 -0.07315563 0.06325735 -0.023630409
0.11523258 -0.05675518 -0.03443432 0.038216095 0.07305097 -0.11361138 0.05011727 -0.11324009
0.0048204185 0.105776824 -0.027251316 -0.10297597 0.06313343 0.07794486 0.029495973 -0.08026623
0.06335043 -0.08066997 0.083357334 0.03419215 0.06380277 0.11909156 0.12289013 0.1321496
0.09569498 0.031428095 0.07784889 0.010326565 0.11688911 0.09387438 0.0985044 0.009135012
-0.030615628 -0.0056040836 0.07042627 0.085241206 -0.019824639 0.056534346 -0.056298845 0.09312097
-0.039689448 -0.025550978 0.0338112 0.10405333 0.010935238 0.11413495 -0.088031344 -0.060509488

bias_hh_l0 f4 [256]
00000000: cbf1 87bb a179 6a3d f646 823b ad0d 203e
00000010: 9419 3a3c b373 a73d b5dc 6c3d 92bf 0d3e
00000020: 8096 4fbd 9ae3 a9bd dfe0 6cbd ab39 79bd
00000030: 739d 023d 05fd 42bd 7972 95bd 3c2a 55bb
00000040: 6fa2 1c3c 42a7 adbd 2e40 05bd 6593 91bd
00000050: 5d72 adbd 9572 8fbd f557 e9bc 5d1f 8fbd
00000060: fa4e d9bc e414 013e fc79 053e 7b19 2b3d
00000070: 8dc1 57bc bb41 c33d 6500 863c 8ed3 6bbb
00000080: 2e41 21bd ea0d e33d 2421 67bd c55b ab3d
00000090: 966f a23d 4f93 0e3e 1c91 8bbd 5949 193c
000000a0: 7f12 423c e49e 5dbc ca29 f73c f25b 713d
000000b0: 59ff 81bb e150 893d ca3b 8fbd 5169 30bd
000000c0: f7be 9f3d 0d4f 043e e4af 1d3e 9f0f 863d
000000d0: 4184 813b e1da 103e 1608 13bd 4987 da3d
000000e0: d0ba f7bd ebd6 223e 7660 e53c d764 c43d
000000f0: 89a0 123d 2840 6b3d 4d83 a33d f7ab afbd
00000100: d10e b4bd 4e4b a6bd cf20 cd3d 4fdc 0b3e
00000110: 2657 b8bd 4144 b53c d0c5 ba3d d7d1 ea3d
00000120: 9ea5 12be aefc 1dbd daff f4bc 3c2f e03c
00000130: 46ce 9a3d da5e 64bd 6a01 773d 470f cdbc
00000140: cf1e 183e c101 043e 502f c2bd 1373 8dbc
00000150: c9ad be3d a6c9 b1bd 187a 29bd a5ac bebc
00000160: 9682 02be ff62 f23d 889b dcbc 3443 e7bd
00000170: 9c49 a73d 74e8 a73d 3536 153e 6caa 66bd
00000180: edc0 263e 3e3b ed3d 5390 0bbe ba30 e13c
00000190: 2130 e83c 14d9 be3c 938b 8bbc fd82 4ebc
000001a0: a234 073e a402 eabd c374 47bd 99b5 093d
000001b0: 3e6e af3d ef27 1fbc 9c8b fe3b f4db bdbd
000001c0: 3d50 9c3d ec7d 26bd d81b 863b c434 2c3d
000001d0: cbe5 1e3d 1676 12bc fe15 74bd 4e63 033e
000001e0: 759a b8bd 220c 5dbb c528 013e 66d5 8b3d
000001f0: b619 d4bc 33c9 6dbd 1dbf 2b3d 7584 f03d
00000200: a72c 8d3a 8a12 0abd 813f 86ba 1f62 0fbe
00000210: b15e 9cbd 4b6d c2bb 7963 d2bc 4c3b b7bd
00000220: ca05 c0bd 6ea4 8e3d 5981 12be 14fb 93bd
00000230: daf0 e73d 20ed 9fbd c889 7dbd bbac 193e
00000240: 3e1f a63c 0ab3 1dbe f4e3 98bd 4c38 67bd
00000250: 61e3 44bd 82c7 6dbc e88f 343d 35ba 0c3d
00000260: 4848 33bd 1d6d bcbd 733b da3d a5bd ee3d
00000270: 674e 01bd 4cf1 aa3c 8fbd adbd 501e b8bd
00000280: 8c49 bebd bfcc e53d 72d7 b93d d1ba 0ebe
00000290: 7626 afbd d1fb ebbd 1b47 ee3d 5ac0 0a3d
000002a0: 6798 81bd 24c2 fb3a 88ee 93bc 9ab7 6b3c
000002b0: 3aa0 00be 8270 1e3e 80cc 063e 9a15 903c
000002c0: cc1a f2bd f6f6 e93b c69f 22be 4436 d93d
000002d0: a7ce 1a3d 5c5a 753c 82b7 5cbc 8bff 9e3d
000002e0: 35e6 2e3b 017b 9b3c 7b47 3fbd bd9a 5cbd
000002f0: 0c9d 90bc 49d1 0e3e 418c 5b3d 6e6f b1bd
00000300: a0f9 f7bb 6610 473d d94a e63c 4c99 6dba
00000310: a701 d2bd f095 4f3d 0ed0 023e 2a7a c3ba
00000320: 76b7 8d3c 7afb 4abd 958c 833d deb0 083e
00000330: 5c93 ff3a a443 f03c 986d e93d 0316 a13c
00000340: e9dc e73d 3831 16bd 6d8e c5bd 2f36 efba
00000350: 9633 bd3d cf29 a93d fc30 993d 8098 16be
00000360: 7452 8f3d 2fa6 d7bc a1ae d33d 28c0 04bd
00000370: 4661 8b3d 1ce7 d6bd b6b1 8e3d dfad 8e3d
00000380: a9f2 303c af1a 153e ac18 19bd e032 f23c
00000390: 5549 8bbd a1c6 debd 619e a6bc 61cb 913c
000003a0: 4186 77bb 2e9f ab3c 8cb2 c83d 8bef f5bd
000003b0: 6edb 003e 27e5 14bd 15ae 8bbd 36c2 24bd
000003c0: be81 38bd ab4e 7b3d 977d 79ba 234b 8bbd
000003d0: 0fdc f0bd c19e 8b3d 7bf6 bcbd 70b0 043e
000003e0: ffe6 0ebd e96c 053e 8978 ccbb 4ecb 5abc
000003f0: 5ec5 54bd ef15 be3b d931 ddbc aa78 05bd
-0.004148697 0.0572449 0.0039757444 0.15630217 0.011358637 0.08176365 0.05782767 0.1384261
-0.050680637 -0.08295365 -0.05783164 -0.060846012 0.031888437 -0.04760458 -0.072972246 -0.0032526394
0.009560212 -0.084791675 -0.03253191 -0.071081914 -0.08469079 -0.07004277 -0.028484324 -0.06988404
-0.026526917 0.12605625 0.13034815 0.041772347 -0.013168705 0.095340215 0.01635761 -0.003598425
-0.0393688 0.11086638 -0.05642809 0.08367113 0.079314396 0.13923381 -0.06814787 0.009355866
0.01184523 -0.013526652 0.030171294 0.058925577 -0.0039672074 0.067048796 -0.06993826 -0.043069188
0.078000955 0.1292078 0.15399128 0.06545948 0.0039525335 0.14145996 -0.035896383 0.10670335
-0.120961785 0.15902297 0.028000098 0.09589546 0.03579763 0.05743423 0.07984028 -0.085777216
-0.087918885 -0.08119832 0.10016023 0.1365826 -0.09000997 0.022127273 0.09119761 0.11465805
-0.1432099 -0.038571052 -0.029907156 0.027366273 0.07558875 -0.05575452 0.060304083 -0.025031699
0.14855503 0.12891294 -0.094816804 -0.017266786 0.09310491 -0.086810395 -0.041376203 -0.023275683
-0.12745127 0.11835288 -0.026929632 -0.11292115 0.08168337 0.08198634 0.1457146 -0.05631487
0.16284533 0.11583565 -0.13629274 0.027489055 0.028343262 0.02329687 -0.017034328 -0.012604472
0.13203672 -0.11426285 -0.048695337 0.03362045 0.08565949 -0.009714111 0.0077681076 -0.09270468
0.07632492 -0.040647432 0.0040926747 0.04204251 0.038793366 -0.008939287 -0.059591286 0.1283085
-0.09013835 -0.0033729156 0.12613209 0.06827812 -0.025891166 -0.058053207 0.041930307 0.11744014
0.0010770754 -0.033709086 -0.0010242314 -0.14002274 -0.076352485 -0.005933439 -0.025682198 -0.08946857
-0.09376104 0.06964956 -0.14307155 -0.07225624 0.11325236 -0.078089 -0.061898977 0.15007298
0.02027857 -0.15400329 -0.074653536 -0.056450173 -0.048068408 -0.014512898 0.044082552 0.03435727
-0.043770105 -0.09200499 0.1065587 0.116572656 -0.03156891 0.020867012 -0.08483421 -0.08990157
-0.09291372 0.11220693 0.09074296 -0.13938452 -0.08552258 -0.115226395 0.11634656 0.033874847
-0.063278966 0.0019207639 -0.018058077 0.014387036 -0.12561122 0.15472606 0.13163948 0.017588425
-0.11821517 0.0071400357 -0.15881261 0.106060535 0.037794735 0.014975157 -0.013471486 0.07763585
0.0026687507 0.018979551 -0.04669903 -0.053858507 -0.01765301 0.13947023 0.053600553 -0.08663832
-0.0075675994 0.048599623 0.028111862 -0.00090636755 -0.102542214 0.0506801 0.12774679 -0.0014913727
0.017299395 -0.049556233 0.06423298 0.1334872 0.0019498873 0.029329129 0.113978565 0.019663816
0.11321432 -0.036668032 -0.09646306 -0.0018250401 0.09238355 0.082599275 0.07480046 -0.14706612
0.069981486 -0.02632436 0.10336042 -0.032409817 0.06805663 -0.10493299 0.069674894 0.06966757
0.010800042 0.1456096 -0.037377045 0.029565275 -0.06801096 -0.10877729 -0.020339193 0.017797174
-0.003776923 0.020949926 0.0979968 -0.1200858 0.12583706 -0.03635135 -0.06820313 -0.040224276
-0.045045607 0.06135432 -0.00095173105 -0.068014406 -0.11760723 0.06817389 -0.092267 0.1295793
-0.034888264 0.13029827 -0.006239955 -0.013354136 -0.051946037 0.0058009545 -0.027001308 -0.032585777

weight f4 [2, 64]
00000000: ee53 273d 10ef ef3d 960a 9a3d 06f2 24bd
00000010: ead2 533d 7b78 0cbd 2863 17be 5d01 6d3c
00000020: b203 89bd 80ae 8dbd 4fff 11be 6a3a 00be
00000030: e6fc 9dbd 5040 58bd dd14 49bd 6124 1f3d
00000040: 3f3a 1b3d 66bd 10be 63e6 013d 4369 e83c
00000050: 19a9 ffbd c5d8 23bd 40c7 97bd ffba d8bd
00000060: b047 88bd 036d 83bd 444b 75bd dbd2 6ebd
00000070: 0a85 613d 894d c33c b964 6cbc 4bcd 88bc
00000080: 9395 a8bc 809a 6b3d b5b5 87bd 61fc b23d
00000090: 446b 0abd 94b3 0abe 0880 cb3d 2812 6c3c
000000a0: 4963 5ebd 2d14 80bd 7724 09be bdc0 213d
000000b0: 0746 a6bd 8a05 103d eb01 093e a5ad 333c
000000c0: 610b 54bd 3722 3d3b c789 8fbd 1147 16bd
000000d0: cced db3c a6b8 ec3b 0e95 72bc 1ce7 dd3d
000000e0: 4c86 563d b88b e7bd 9baa f63d 49d2 e13c
000000f0: 109f e43d 5193 31bb e605 b3bc 6220 b73d
00000100: 89d7 ef3d d81a 8dbd 4996 01be 8896 c93d
00000110: 1e28 4a39 1271 493d 00cb a0bd c281 073e
00000120: 5cb2 c03c 2399 9d3b 71ac 3abd 81d1 b1bc
00000130: 0e59 93bd 500f 45bd 3316 f33d a56a d2bd
00000140: 26cb 08be 020d bbbb 28cb 0c3e 23a0 99bd
00000150: d989 443b afa5 61bd 485a 9e3d 82ab 203d
00000160: c61a b1bd 66b1 0d3e fe92 b6bd c008 1bbc
00000170: 6b25 7d3d 8c5a 673c da2b 063e 8830 b83d
00000180: 01e9 ea3d 64d4 573d 6945 c73c fb37 a63d
00000190: b110 3eba c3ad 673d 3ccf 223d 47c9 02be
000001a0: b187 fdbd 8b23 d73d f976 5cbd 5bb3 cabd
000001b0: 3799 b03c 1f98 80bd 6d83 89bc fc93 41bd
000001c0: 5c8a 57bd 3f74 0a3e 8100 ea3d a409 83bd
000001d0: 4031 a33d 45b6 b3bd b3f8 1bbc 2c0c f8bc
000001e0: 2838 6f3d 7767 023c 9a3a 9d3b 0b26 54bd
000001f0: 42dd 0c3c 373a f13a 6eb5 c1bd 5331 d73d
0.040851526 0.117155194 0.0752155 -0.040269874 0.051714815 -0.034294587 -0.14783919 0.014465657
-0.06690158 -0.06918049 -0.14257549 -0.12522283 -0.07714252 -0.05279571 -0.049092162 0.038853053
0.037897345 -0.1413475 0.031713855 0.028370505 -0.12483425 -0.04000165 -0.07411051 -0.10582542
-0.06654298 -0.06417277 -0.059886232 -0.058306556 0.055058517 0.023840683 -0.014428311 -0.016699454
-0.020579135 0.05752039 -0.06626455 0.08739544 -0.033793703 -0.13545066 0.099365294 0.014408626
-0.054293904 -0.06253848 -0.13392816 0.03949045 -0.081188254 0.035161532 0.13379638 0.010966693
-0.051768664 0.0028859505 -0.07008701 -0.036688868 0.026846789 0.0072241602 -0.014806045 0.10835096
0.05237417 -0.11305946 0.12044259 0.027566092 0.11163151 -0.0027095864 -0.021853399 0.089417234
0.11711032 -0.06889886 -0.12654985 0.09843165 0.00019279166 0.049180098 -0.07851219 0.13233092
0.023522548 0.004809515 -0.04557461 -0.021706345 -0.0719472 -0.048110306 0.118694685 -0.10274247
-0.13358745 -0.0057083378 0.13749373 -0.07501247 0.002998939 -0.05508965 0.077320635 0.039226063
-0.08647685 0.13837203 -0.08914755 -0.009462535 0.061803263 0.014120709 0.13102666 0.089936316
0.11470223 0.052692786 0.02432509 0.08116146 -0.0007250412 0.056562196 0.039748415 -0.12772094
-0.12379397 0.10504826 -0.0538244 -0.098974906 0.021557434 -0.06279015 -0.016786302 -0.04726027
-0.052622184 0.13520907 0.11425877 -0.06398323 0.07968378 -0.087749995 -0.009519744 -0.030279242
0.058403164 0.007959238 0.0047982456 -0.051794093 0.008597674 0.001840419 -0.09458433 0.10507455

bias f4 [2]
00000000: 8eb1 913d e4fe 35bd
0.07113944 -0.044432536
